runs/2022-04-25_04-51-59_model/model.ckpt (torch, 674132 bytes, 92 tensors)

phi_x.0.weight f4 [40, 122]
000000 1c 54 49 3d e8 f4 31 3d 78 06 e4 3c 4b c3 68 3e
       0.04915248 0.04344645 0.027835116 0.22730748
000010 6b d8 15 be d8 41 a6 3b 25 83 29 bc 51 93 f9 3c
       -0.14633338 0.005073767 -0.010346209 0.030465754
000020 0f a6 88 be 76 83 87 bd 56 54 9f 3b a0 e4 b0 bd
       -0.26689193 -0.06616871 0.0048623485 -0.08637357
000030 69 9e 82 bc 03 01 66 3e e8 c1 71 3c f6 cc 05 3e
       -0.015944676 0.22461323 0.0147557035 0.13066468
000040 ab 53 08 be e1 23 6c bd 4a 76 2e bc f1 b9 d4 bd
       -0.13313167 -0.057651404 -0.0106483195 -0.10387028
000050 1c 71 84 bd b2 25 c5 bd fe 69 75 ba ea 48 0e 3d
       -0.064668864 -0.096263304 -0.00093618024 0.034737505
000060 31 5b 46 be 49 f6 55 bd ec 2d d3 3d 97 5e 1c 3d
       -0.19370724 -0.05223683 0.10311493 0.038176145
000070 d1 b8 a3 be 80 65 c7 3d e2 b7 17 bc 1d b7 03 3d
       -0.3197694 0.097361565 -0.00926015 0.032157052
000080 f6 74 4c bd 44 56 d3 3d 23 c9 0b be b2 f2 9d 3c
       -0.04991623 0.10319188 -0.13650946 0.019280765
000090 ed 5b 11 be 76 cb ec bd 84 44 00 3e 6e fe c2 3c
       -0.14195223 -0.115622446 0.12526137 0.023802962
0000a0 89 60 7b be 0d 95 58 3e e1 23 12 be b6 4c 00 bd
       -0.24548544 0.21150608 -0.14271499 -0.031323157
0000b0 b7 41 85 3d a8 74 8b be 25 b9 86 be 5a 86 04 3e
       0.06506675 -0.2723744 -0.2631313 0.12941876
0000c0 38 b5 29 bd d2 f4 8d 3b 04 a8 ab 3d 61 2c c2 bb
       -0.04143259 0.0043321634 0.08381656 -0.0059257005
0000d0 4c 0a 4b be 42 c4 48 3d 84 fe 01 be f1 56 6b 3c
       -0.19828147 0.04901529 -0.12694746 0.01436399
0000e0 85 27 47 3c c3 e3 5b 3d 93 ff fe 3d 3f 4f 36 be
       0.012155418 0.053684007 0.12451091 -0.17803667
0000f0 36 3d ae 3c aa f3 a6 bd 4f 94 69 bc aa 97 e1 bd
       0.021269422 -0.08151944 -0.014256551 -0.11015256
000100 a9 92 f0 3c 6a f5 94 bc 88 bc 1e be e7 a1 11 bc
       0.029366808 -0.018183429 -0.15501606 -0.008888698
000110 a1 b4 4a 3e 44 f1 aa bd 2b 3b 08 3e a3 cc 32 3e
       0.19795467 -0.08346799 0.13303821 0.17460875
000120 62 b0 4a bd 28 b9 ed bd 49 cb 51 bd 8f e5 2e bd
       -0.049484618 -0.116075814 -0.05121926 -0.042699393
000130 a1 60 1e 3e 55 f0 39 bd c8 b0 17 be 5c b3 01 3e
       0.15466549 -0.045395214 -0.1481353 0.12666076
000140 c8 c3 f1 bd 75 c9 94 bd 86 26 1a bd e0 63 8f bd
       -0.118049204 -0.072649874 -0.037634395 -0.070014715
000150 4f 63 1a bd 42 d0 b5 3c b9 d9 87 ba 0a f3 9e 3c
       -0.037692364 0.022194032 -0.0010364569 0.019403
000160 56 17 17 3d f5 35 7f 3c d8 e3 20 3d 72 87 1d 3e
       0.03688749 0.015576829 0.03927979 0.153837
000170 4f ca a7 bd 63 e8 96 bc ab 0c c8 3b 60 67 25 3e
       -0.08192884 -0.018421357 0.0061050258 0.16152716
000180 ff 99 b8 bd 42 2c 00 3e 21 48 a8 bc 3e d0 1f 3d
       -0.090137474 0.12516883 -0.020542206 0.039016955
000190 a5 1f 32 be e3 72 df 3d 48 fa 2c be 1a d9 9b bd
       -0.17394884 0.10910585 -0.1689235 -0.07609768
0001a0 2e fa 8c be 43 7e f4 3b 26 bb a6 bd 77 fd 3a bd
       -0.27534622 0.0074613406 -0.081411645 -0.04565188
0001b0 d9 6f 0e 3c 18 a4 08 3e b4 3e 1a be 8b 74 a3 3c
       0.008693659 0.13343847 -0.15062982 0.019953033
0001c0 69 f3 db bd 56 e8 e1 bb 0c e8 d3 bd 24 25 3e 3e
       -0.10739786 -0.0068941517 -0.10346994 0.18568856
0001d0 e4 ec 20 3e 31 66 a2 3c cf 7f 82 bc f1 9e c0 3d
       0.15715367 0.01982412 -0.015930085 0.09405316
0001e0 cc e8 69 bd 18 59 10 be aa 4a 5d 00 17 cf c5 80
       -0.057106778 -0.14096487 8.567486e-39 -1.8165883e-38
0001f0 dd fc 0f 80 97 3f 7a 00 b6 89 cf 00 39 bc a8 01
       -1.468243e-39 1.1226742e-38 1.9059349e-38 6.198354e-38
000200 91 ca fb a8 53 ae a3 80 ce 4d b7 80 58 32 9d 80
       -2.7954447e-14 -1.5031722e-38 -1.6833807e-38 -1.4436233e-38
000210 95 0e 9e 00 67 73 06 a5 0f 53 96 80 3f 11 ae 00
       1.451524e-38 -1.1661747e-16 -1.380512e-38 1.5985563e-38
000220 94 cb c0 80 ad ae c6 a6 b8 55 4f 00 25 86 cf ab
       -1.7705445e-38 -1.3786356e-15 7.285754e-39 -1.4745467e-12
000230 f2 33 e4 14 2a 26 3b 80 31 ba 9d 00 e7 5c d1 ad
       2.3042605e-26 -5.431985e-39 1.4484966e-38 -2.3801806e-11
000240 a5 bb 5c 80 32 f5 84 03 88 8c 63 00 1f d7 27 04
       -8.51618e-39 7.814557e-37 9.142127e-39 1.9729534e-36
000250 ef 35 98 00 24 10 9a 80 a7 18 8a 00 4a 40 2f 81
       1.3978343e-38 -1.4148457e-38 1.2682142e-38 -3.218855e-38
000260 45 c9 18 80 d0 60 82 00 75 49 55 89 0a 10 b3 00
       -2.276254e-39 1.1973344e-38 -2.5673482e-33 1.6444308e-38
000270 60 ab 69 80 52 66 b8 05 86 8d 7a 03 bf f8 e4 00
       -9.704205e-39 1.7340863e-35 7.363086e-37 2.1027726e-38
000280 be 09 b6 80 9e ab 2d 84 16 66 de 09 a3 10 a4 80
       -1.6717555e-38 -2.0414855e-36 5.3540557e-33 -1.506699e-38
000290 89 db 19 00 58 2b 06 00 83 23 b9 00 b7 c8 b6 00
       2.374642e-39 5.66562e-40 1.7002306e-38 1.6786063e-38
0002a0 98 ef 82 80 64 92 d8 82 7f 6c 0e 80 8e b3 c9 10
       -1.2024565e-38 -3.1822372e-37 -1.324618e-39 7.955717e-29
0002b0 26 83 fb af ef 0d 16 01 0b fe 3a 00 5d a3 be 80
       -4.574982e-10 2.7560646e-38 5.417592e-39 -1.7507348e-38
0002c0 ff 17 a1 80 20 ad bb 82 f5 53 0c 00 9c 84 31 03
       -1.4794123e-38 -2.757655e-37 1.132144e-39 5.2167853e-37
0002d0 a6 c0 74 80 4b 65 47 00 dd 37 46 80 2e d5 cd 80
       -1.0722027e-38 6.556657e-39 -6.448525e-39 -1.8902751e-38
0002e0 d7 d7 f6 83 03 a1 07 00 2a 13 3d 80 aa ce c3 84
       -1.4508135e-36 7.00609e-40 -5.60884e-39 -4.603407e-36
0002f0 00 56 2e 80 f4 9f f6 a4 44 2f d1 80 59 c2 42 80
       -4.255284e-39 -1.06956465e-16 -1.9210574e-38 -6.130862e-39
000300 cd 28 fc b5 a4 8c 00 82 ca e9 d8 ac dc 16 9c 00
       -1.8787338e-06 -9.444317e-38 -6.165045e-12 1.4334538e-38
000310 02 81 39 80 71 b9 ef 80 05 84 e7 83 20 4b 2d 81
       -5.280903e-39 -2.2015207e-38 -1.360727e-36 -3.182898e-38
000320 46 c2 c3 80 ea e8 0f b4 2f 13 b1 0b c0 aa 92 80
       -1.7977614e-38 -1.3402646e-07 6.8206784e-32 -1.3469236e-38
000330 76 53 46 00 8b 7e 8f 01 00 1e 16 01 d8 a7 1b 00
       6.458425e-39 5.2711484e-38 2.7572173e-38 2.53977e-39
000340 6c 4d 91 81 0d 1b 8f 1e b0 82 88 80 cb 0c 2f 00
       -5.337568e-38 1.5151902e-20 -1.253651e-38 4.320858e-39
000350 53 c9 07 01 60 19 a1 00 1e e1 18 00 3c 24 1e 80
       2.4940027e-38 1.4794618e-38 2.284809e-39 -2.768063e-39
000360 a9 a7 26 ad b2 4d 91 05 e3 f7 1a 0a d5 6c 97 00
       -9.4732356e-12 1.3664275e-35 7.4614526e-33 1.3906201e-38
000370 eb c8 02 80 1d cd 15 80 51 8f 80 03 7b 6d 41 a3
       -2.55747e-40 -2.002126e-39 7.556068e-37 -1.0485734e-17
000380 73 53 5c 00 91 59 1c a3 79 5e 52 80 16 18 50 80
       8.478802e-39 -8.475743e-18 -7.564401e-39 -7.35548e-39
000390 a8 e5 24 80 97 a0 52 81 79 f3 3b 80 4f 4d 3c 91
       -3.388463e-39 -3.8686126e-38 -5.505636e-39 -1.4854408e-28
0003a0 4a e4 61 80 c3 10 12 ad e4 ee 72 80 1d 98 19 97
       -8.989938e-39 -8.302861e-12 -1.0554944e-38 -4.962896e-25
0003b0 5d 7b 41 00 d0 08 7f 00 6b ac ad 80 b4 e4 56 00
       6.013562e-39 1.166627e-38 -1.5949393e-38 7.979896e-39
0003c0 c2 4e e6 84 a6 dc a7 00 1d b9 ad 80 0b 93 d6 00
       -5.4145068e-36 1.5415682e-38 -1.5953947e-38 1.9705545e-38
0003d0 c7 09 2d 04 a5 16 d2 ac 2d bb 18 b8 11 cb a2 b5
       2.0340542e-36 -5.971073e-12 -3.6413945e-05 -1.2129041e-06
0003e0 9f 7f 34 00 36 56 e0 b0 2b 19 ce b5 c3 7c 40 06
       4.821228e-39 -1.6322648e-09 -1.5355521e-06 3.6202847e-35
0003f0 03 8f 37 08 59 c0 3b bb 06 d9 e5 17 9b 4f 95 b4
       5.523767e-34 -0.0028648584 1.4853563e-24 -2.7811333e-07

phi_x.0.bias f4 [40]
000000 05 fa 73 3e ac 52 bb bc dc a2 f7 bb af a8 d2 3d
       0.23825844 -0.02286657 -0.007557256 0.1028608
000010 75 02 3c 3e 4c d4 1f 3d 88 7e 6b 3e 1e 7f ed 3a
       0.18360312 0.03902082 0.22997487 0.0018119549
000020 25 5a a5 3d 22 d8 2a bd ae 2b 54 3e e9 cf 9f bd
       0.08073834 -0.041710027 0.20719787 -0.078033276
000030 c7 5b d3 bd 0a 05 f6 3d c7 36 e8 3c 17 50 8a 3e
       -0.103202395 0.1201268 0.028346432 0.2701423
000040 5b ca f3 bd c6 ac c3 bd bd 0a 12 3e 8d a1 4c 3e
       -0.119038306 -0.09554438 0.14261909 0.19983502
000050 28 b7 59 3e c1 0f d3 3e 3c 44 94 bd cc 20 ce bb
       0.21261275 0.41222957 -0.07239577 -0.006290531
000060 30 d7 2e 3e 04 da 35 bb d2 cd 09 3c 08 87 42 bc
       0.17074275 -0.0027748356 0.008410888 -0.011873014
000070 73 86 f2 3d ca 29 40 bd f4 4f ee bd f9 d2 09 bb
       0.118420504 -0.046914853 -0.116363436 -0.002103029
000080 3a 7b 7d 3e f4 5f 2e bd 07 c0 32 bd ab 21 93 bb
       0.24754038 -0.042571977 -0.043640163 -0.0044900975
000090 e0 72 60 3e ce fc df bb 75 fd 89 bd be 4d 40 3e
       0.21918821 -0.0068355566 -0.06737796 0.18779656

phi_x.2.weight f4 [40, 40]
000000 12 e3 66 3d 17 33 c9 80 3f cb ae 1b fa 50 0e 3f
       0.056368895 -1.8477262e-38 2.891723e-22 0.5559231
000010 0b 8a cc 3c ad 2c 16 3f 42 fb 8a be e8 45 db 3d
       0.024968168 0.5866192 -0.2714482 0.10706693
000020 f8 7d 1c 3f 88 77 70 00 3f 72 b8 3d 25 e4 d1 05
       0.61129713 1.0328455e-38 0.09006166 1.9738073e-35
000030 fb 10 71 37 58 ac 4d 3c ca 61 06 bd 2a 4a 1d 3d
       1.4368673e-05 0.012553297 -0.032808103 0.038400806
000040 90 33 f3 81 22 bc 06 2e 10 93 8e 3e ba 85 88 3e
       -8.933809e-38 3.0635168e-11 0.27846575 0.26664525
000050 6d 3c c1 3e 5e e9 cc be ab 26 c0 1c 15 cc a2 3e
       0.37741414 -0.40021795 1.271549e-21 0.31796327
000060 42 70 b7 bc 35 38 94 3e 29 67 b5 3e 9d af e8 3d
       -0.022392396 0.28949133 0.35430267 0.113616206
000070 24 73 a1 3d 36 a4 b1 2d 3d 37 bd 8c e8 80 21 3e
       0.078832895 2.0195495e-11 -2.9153306e-31 0.1577183
000080 2b a9 1d 3e 6e ed 1b 35 6a 69 0b 3f 43 2f f0 3e
       0.15396564 5.8087505e-07 0.54457724 0.46911058
000090 95 7d c1 bd eb 06 d2 bd 7a e2 d1 04 8b e7 a3 3d
       -0.09447781 -0.10255226 4.934365e-36 0.08003148
0000a0 21 72 05 3b ec f2 bf 86 9f 4b 36 38 6e da 21 34
       0.0020362216 -7.2203156e-35 4.346261e-05 1.5073758e-07
0000b0 14 3f b9 38 cf 88 21 8e 29 41 98 39 49 97 9e b0
       8.833237e-05 -1.9910653e-30 0.00029040247 -1.1539011e-09
0000c0 07 7a 3f ba 0b 7a 68 1a 4f 19 9d ba a4 e6 a0 26
       -0.0007304255 4.807506e-23 -0.0011985692 1.1164746e-15
0000d0 34 18 04 31 39 c2 6f 00 00 78 43 b5 95 7e 40 bb
       1.9222286e-09 1.0263414e-38 -7.2817784e-07 -0.0029372324
0000e0 5f 4b 19 81 92 fd b9 b4 48 2e 8d b2 19 08 b4 34
       -2.8155738e-38 -3.4643432e-07 -1.6435607e-08 3.3533505e-07
0000f0 89 cc 90 bb ce 86 06 38 b9 33 81 30 7c 48 f3 37
       -0.0044189137 3.2073636e-05 9.400686e-10 2.900161e-05
000100 9c 6c a8 a8 56 44 44 8d d0 f9 3a 00 ec 82 3d 37
       -1.8698849e-14 -6.047942e-31 5.416075e-39 1.12957605e-05
000110 f3 19 69 b8 4f cf a3 aa 4c 6a 50 30 7f 11 9f 00
       -5.5575696e-05 -2.9098466e-13 7.5821016e-10 1.460812e-38
000120 23 73 86 b9 f9 7b 3c 39 98 44 e4 34 85 c1 29 88
       -0.00025644255 0.0001797526 4.2518218e-07 -5.108407e-34
000130 c1 dd 0f a9 de fa a8 00 dc 45 3f 00 fb cc fa b5
       -3.194472e-14 1.5518358e-38 5.810697e-39 -1.8686109e-06
000140 99 7a 54 3d 0d b4 d3 90 4c 04 8a ba 33 de e9 3c
       0.05187473 -8.350224e-29 -0.0010529845 0.028548336
000150 0a 50 f7 3d b2 d4 8d 3e a5 2c d0 bd 0c 84 a7 bd
       0.12075813 0.27701336 -0.10164765 -0.08179483
000160 27 7c d8 bd ce b8 96 2d 12 78 2f 3e f3 06 a2 30
       -0.10570555 1.7135095e-11 0.17135647 1.1789026e-09
000170 46 fc 1f b9 e0 f0 7a bf dd 66 a7 bd e5 50 1f 3d
       -0.00015257401 -0.98023796 -0.081739165 0.038895506
000180 2a 7b 14 a8 d9 f4 f9 bb 07 41 7b 3e 5d 03 2e 3e
       -8.242357e-15 -0.007628065 0.24536525 0.1699347
000190 14 fe 20 3e b8 fb a5 3e 7f e3 3a b9 f0 9b 26 be
       0.15721923 0.3241861 -0.00017823091 -0.16270423
0001a0 18 8f 5a 3e a2 64 50 be 56 ed 2f bf 7b c9 37 3d
       0.21343648 -0.20350888 -0.6872152 0.04486988
0001b0 67 8b 31 bd 59 3c 9e 3a 9f 4e 7c b6 4a 12 2d bf
       -0.043345835 0.0012072428 -3.759669e-06 -0.6760603
0001c0 89 74 1a 3d 13 bc db b9 72 50 8c 3e 13 2e 98 be
       0.037708793 -0.0004191106 0.27405125 -0.29722652
0001d0 b2 46 f1 3d 9a be 79 bf a8 82 b4 2a de 30 34 3e
       0.11781062 -0.9755646 3.2065084e-13 0.17596766
0001e0 03 f2 77 b6 9c 11 31 00 69 a3 60 37 77 03 b2 0c
       -3.6946738e-06 4.506256e-39 1.3389487e-05 2.7427328e-31
0001f0 1d 9a 61 b4 4b b0 47 80 cd 67 f0 b8 ef dd 54 8c
       -2.1010824e-07 -6.583562e-39 -0.00011463426 -1.6398672e-31
000200 e8 18 ac b5 9d 1a 32 0f 09 6e db b8 42 bd 4e 0f
       -1.2822247e-06 8.781203e-30 -0.000104632294 1.0193034e-29
000210 16 69 69 0a b8 79 f1 87 d9 ce cd 22 24 aa a7 38
       1.12383064e-32 -3.633319e-34 5.578437e-18 7.994872e-05
000220 3a f5 2a 89 a7 57 08 b7 c5 d8 95 8b 3f a3 53 b0
       -2.057831e-33 -8.12664e-06 -5.771887e-32 -7.699334e-10
000230 da 64 f8 38 58 dc 44 b7 0e 25 3b b2 55 6c e2 b8
       0.000118443466 -1.1733813e-05 -1.0893258e-08 -0.00010796698
000240 3d 6d c9 00 8c 96 37 0d d3 5b a1 84 8f 2e 9b a4
       1.8498122e-38 5.6572443e-31 -3.7935245e-36 -6.729941e-17
000250 7a e1 b2 1f 99 bb 88 b4 39 d6 c2 a6 72 27 ec 0e
       7.575895e-20 -2.546847e-07 -1.3519519e-15 5.8216476e-30
000260 b5 a6 e2 b8 45 53 d3 34 28 9e d7 87 13 27 8c 85
       -0.000108075714 3.93624e-07 -3.244256e-34 -1.317989e-35
000270 d6 75 7a 06 7b 14 fe 0a 12 b6 d9 8b 83 0b ac a5
       4.7106346e-35 2.4467014e-32 -8.385931e-32 -2.9845044e-16
000280 23 b3 bb 3a b7 65 14 00 d7 9e cf 8f bb ac 75 a5
       0.0014320355 1.873198e-39 -2.0472959e-29 -2.1308886e-16
000290 ad 75 83 2e 10 59 a7 16 f1 f8 54 b3 b3 6b be 2e
       5.978094e-11 2.7036511e-25 -4.9586507e-08 8.659331e-11
0002a0 6b 70 7a b5 75 1c e3 82 f0 eb ce ba e2 ea 72 87
       -9.3295847e-07 -3.3370986e-37 -0.0015786868 -1.8275082e-34
0002b0 f1 83 12 a6 cf a7 04 07 f4 08 e7 a1 2d 3c 05 ba
       -5.083274e-16 9.979891e-35 -1.5655539e-18 -0.0005082514
0002c0 ef ea e0 04 59 e7 b1 37 a9 39 01 38 77 e8 55 0c
       5.28779e-36 2.1207774e-05 3.0809697e-05 1.6478878e-31
0002d0 01 a4 0c ba 24 bb ae 9a dc e0 64 2e b4 e5 09 38
       -0.00053650147 -7.2267055e-23 5.2040913e-11 3.2877273e-05
0002e0 ba 3a 65 03 64 83 86 02 b6 26 35 00 8b a2 f4 ac
       6.7364466e-37 1.9764945e-37 4.881168e-39 -6.952943e-12
0002f0 ab 0b 75 b2 e3 cb 6a 32 3a 3a af 16 e1 fb 3d 00
       -1.426353e-08 1.3666951e-08 2.830952e-25 5.692322e-39
000300 f1 fd fe b8 5c 12 5b 24 63 b6 e8 ac 6a aa 60 8c
       -0.00012158964 4.7503606e-17 -6.6140856e-12 -1.7307614e-31
000310 5f f7 a1 a8 c0 50 3e 86 db 84 a2 00 5f b9 b0 b3
       -1.798187e-14 -3.5794354e-35 1.492501e-38 -8.2293575e-08
000320 94 4c 8c 3e f3 6c a0 06 00 28 85 3d 6c 04 cb 3e
       0.27402174 6.03454e-35 0.0650177 0.3965181
000330 f5 b1 3f 3e 02 35 88 3e f1 d1 dd 3d fc 23 7b 3d
       0.18720229 0.26602942 0.10831059 0.061313614
000340 05 07 9c 3e 1d 28 9a 22 bd 10 04 3d 8d 29 4c 33
       0.30474105 4.1784255e-18 0.032242525 4.753524e-08
000350 53 77 76 39 42 56 74 be 29 4a 4c 3d 6c 10 88 3e
       0.0002350484 -0.2386103 0.049875412 0.2657503
000360 4b f9 53 99 d8 5f 28 3d e1 5f 9a 3e ac 49 95 3e
       -1.0958789e-23 0.04110703 0.30151275 0.2915777
000370 92 1f 86 3e c7 19 8d 3d 5d 91 69 3b 4d b5 f4 3d
       0.2619596 0.06889682 0.0035639622 0.11948643
000380 d5 aa 55 3d c1 fa 82 3c 7f 26 85 bb 07 b0 26 bc
       0.05216487 0.01598871 -0.004063427 -0.010173804
000390 c0 d7 cd 3d 56 34 b4 39 67 31 86 38 07 ed 9b 3d
       0.10050917 0.0003437127 6.39882e-05 0.07613569
0003a0 94 f7 3f 3d 40 25 c6 3b 3f f6 ed 3d 29 b6 19 3e
       0.04686697 0.006046921 0.11619233 0.15010895
0003b0 da 0f 7d 3d 2d 69 57 be 5b 28 e1 23 76 ee cd 3d
       0.061782695 -0.21036215 2.441164e-17 0.100552484
0003c0 53 c8 27 3e 86 68 98 97 c5 0a 93 ba a4 ec 96 bd
       0.16385011 -9.849155e-25 -0.001121842 -0.07369354
0003d0 69 dc 5f 3e 5b 55 b4 be 1b 36 8b 3e fc a1 06 3d
       0.21861424 -0.3522137 0.27189717 0.032869324
0003e0 8c 25 aa bd 58 ab 1f 32 9e 10 80 3e 74 6f b7 b5
       -0.08307943 9.293977e-09 0.25012678 -1.3667e-06
0003f0 c2 3e 48 3b 7d 5a c6 3e ec c7 10 3e 38 f3 8b 3d
       0.0030554985 0.38740912 0.14138764 0.068335

phi_x.2.bias f4 [40]
000000 ef 99 0b bd 72 2d 4d bd ca 5e 60 3e 19 41 76 bd
       -0.03408235 -0.05009217 0.21911159 -0.060120676
000010 b0 46 80 bc f2 a1 b4 3d b2 f0 30 3e 26 91 a3 3e
       -0.015658706 0.08819951 0.17279318 0.31946677
000020 07 63 3e bd 02 ea 82 3e 10 6c 4b 3e 23 70 76 3e
       -0.04648116 0.2556916 0.19865441 0.24066214
000030 76 c8 85 3e 43 2a 7b bd 9c 8d 94 b6 3d 31 46 bd
       0.26129502 -0.0613196 -4.427229e-06 -0.0483868
000040 bb 96 d1 3d ca 82 6f 3e 17 b6 3f 3e bb a7 41 bd
       0.10233828 0.23389736 0.18721806 -0.0472791
000050 ec 6f 5a bd cb a5 67 3e 86 86 66 3e 83 14 f9 bd
       -0.053329393 0.22621839 0.22512254 -0.121621154
000060 53 d1 98 bd 85 e0 b8 3e b5 ee 91 3e f5 17 21 3d
       -0.074618004 0.36108795 0.28502432 0.039329488
000070 0e 5e 94 3e ab 70 9d 3e 25 33 9a bd 46 13 72 bd
       0.28978008 0.3075002 -0.07529286 -0.05910041
000080 0f c4 a0 3d 5f 0e 12 3e 54 bc bf 3f fd c8 0a b9
       0.07849895 0.14263295 1.4979348 -0.0001323558
000090 c1 66 96 bd 8e c2 f8 bd 08 f7 b3 bd 6f 86 31 ba
       -0.073438175 -0.12146483 -0.08787352 -0.00067720463

phi_z.0.weight f4 [40, 40]
000000 89 b1 7d bc 9a 58 da 3b 27 c1 b5 bc 76 66 91 3d
       -0.015484222 0.006663394 -0.022186829 0.07099621
000010 24 19 0f be 12 24 63 bd 4f b4 99 bc 5c 01 01 3e
       -0.13974434 -0.05545432 -0.018762736 0.12598175
000020 19 f4 81 bd f1 13 24 3e a1 91 45 3d 24 29 76 bd
       -0.06345386 0.16023232 0.048234586 -0.06009783
000030 61 e2 19 be 23 e8 16 3d 40 42 71 bd a3 aa 85 bb
       -0.15027763 0.036842477 -0.05890107 -0.0040791794
000040 5e c4 15 3e 2f 1b a9 bd 41 35 9e 3c 3c 89 1e be
       0.1462569 -0.08257138 0.019312503 -0.15482038
000050 77 ef b2 3d 93 7a 13 3e 43 b9 45 3e a0 ab e1 bd
       0.087370805 0.14402227 0.19308953 -0.11019063
000060 e4 aa e9 b9 f9 63 d2 bb 0e 53 c2 3c 6c 04 c1 3d
       -0.00044568547 -0.006420609 0.023721244 0.094246715
000070 a1 6e af 3b 9b 4e 33 be 99 3c 6e 3d ad e5 0d be
       0.005353764 -0.17510454 0.05816326 -0.13857146
000080 b5 24 e6 3c 49 7b a7 bd 0f e9 13 be d1 0a 05 3d
       0.028093675 -0.08177812 -0.14444374 0.03248102
000090 71 b8 aa 3d f9 9e 88 3c 40 75 ec 3d a6 eb 9f bd
       0.08335961 0.016677367 0.11545801 -0.07808618
0000a0 13 49 78 3c a6 6e 89 3c 8d 34 43 3d 46 ea 83 bd
       0.015154141 0.016776394 0.04765754 -0.064411685
0000b0 8c 70 6a 3d d9 6b 88 bc 4e 80 82 3d ea a4 72 3d
       0.05723624 -0.016652988 0.063721284 0.059239306
0000c0 90 c2 cd 3d 6c 7b 11 bc 36 90 b6 3d 47 1f 92 bd
       0.100468755 -0.008879524 0.08914225 -0.07134872
0000d0 6d dd 67 bb aa 0b 9a bd ca e0 3b bd b6 f7 09 3d
       -0.0035379783 -0.07521756 -0.045868672 0.0336835
0000e0 d6 e9 e2 3d f0 ac eb bc a1 75 c6 3d e3 ab 4e 3d
       0.11079757 -0.028768986 0.09690405 0.050456893
0000f0 ec 66 b0 ba a3 6a 6f bd cf fa 18 3e 6b 41 2a 3c
       -0.0013458407 -0.058451306 0.14939426 0.010391573
000100 ca c5 33 bc de 25 ef 3d 41 e7 a7 bd a0 0f 85 bd
       -0.01097245 0.116771445 -0.08198405 -0.06497121
000110 31 ac 61 bd 6b 0c c7 bd 81 f6 f7 bc 6b 78 33 bd
       -0.055095855 -0.097191654 -0.03026891 -0.04381601
000120 67 13 06 be a1 48 99 bd d9 5a a1 bd 47 5f 36 3b
       -0.13093339 -0.07484556 -0.07878656 0.0027827786
000130 fc 5d c7 bc 6e 90 94 bc 5f 76 8e bd ae 5c 80 bd
       -0.024336807 -0.018135276 -0.06956171 -0.06267677
000140 cf 80 b6 3b 2e 1e 59 3d a5 05 9d bd c4 aa 89 bd
       0.0055695544 0.053007297 -0.07667092 -0.06722024
000150 7f ec 31 3d 7d 7d 23 bc 7b 21 bb 3c 6a 14 c0 bc
       0.04343843 -0.009978649 0.022843113 -0.023447234
000160 81 11 e8 3c 44 8b 20 bd 58 30 6e 3d 2c b9 d2 bc
       0.028328659 -0.039195314 0.058151573 -0.025723062
000170 7b 3c 9e bd 3a c4 3d bd 27 a2 d8 bb c7 25 86 3c
       -0.077263795 -0.046329714 -0.006611127 0.016375436
000180 d0 4e 7b 3d 13 2d 50 bd 19 35 dc 3a d9 47 7c bb
       0.06135446 -0.050824236 0.0016800492 -0.0038494973
000190 17 b9 8f 3a 30 8a 98 3c f4 64 1d bd 10 b6 88 bc
       0.0010965195 0.01862058 -0.038426355 -0.016688377
0001a0 f9 33 d5 bc 52 61 53 3d 40 7c 59 3c 9a 97 7b bc
       -0.026025759 0.051606484 0.013274252 -0.015355969
0001b0 c6 fd 6e bd 68 9d 25 bc e7 c2 27 3d 45 5c 1f 3d
       -0.058347486 -0.010108329 0.040957358 0.038906354
0001c0 a4 fe 32 3d 6b 17 77 3c 07 f3 d5 ba 66 24 53 bd
       0.043699875 0.015081267 -0.0016323038 -0.051548384
0001d0 30 d6 0b ba d8 f8 18 3b bd f4 9d 3c ed a3 2d 3c
       -0.00053343456 0.0023341682 0.01928174 0.010598165
0001e0 32 86 14 3e 7a e7 35 be 19 6c 6c bd 11 5f a3 3d
       0.14504316 -0.17764083 -0.057720277 0.07977117
0001f0 5c c2 3a 3e a0 67 a1 3d cc b8 10 3d 54 d7 17 be
       0.18238205 0.07881093 0.035332486 -0.14828235
000200 2e 8d 81 bb 70 c7 48 3e e7 4a 7c bd dd ee a7 3d
       -0.0039535975 0.1960733 -0.06159487 0.081998564
000210 1f 80 ab bd 25 eb 26 be d3 7b da 3d 34 30 21 be
       -0.083740465 -0.16300638 0.10668149 -0.15741044
000220 e6 40 8c bd 10 2b 8d 3b 59 f9 da 3d e9 05 37 3d
       -0.06848316 0.004308112 0.106920905 0.04468337
000230 3b ea a5 bb c7 a0 f0 3c 2a ad 0a be e5 1d 16 3d
       -0.005063323 0.02937354 -0.1354262 0.036649603
000240 6a 7d b3 bc 2c e8 48 3e df 9e b0 bd bc af 46 3c
       -0.021910388 0.19619817 -0.08624052 0.012126859
000250 3b e9 01 3e ed 83 cb 3d 65 11 be 3d 44 31 0a be
       0.12686627 0.09937272 0.092806615 -0.13495356
000260 2b 24 d0 bd 29 aa 58 bc 3c 1c fe bc 46 36 cd 3d
       -0.101631485 -0.013224163 -0.031019323 0.100201175
000270 c0 5d d2 bd f0 6c 9b 3c 0c 53 07 be ed b9 02 bd
       -0.10271788 0.018972844 -0.13215274 -0.031915594
000280 cc f2 79 bc 75 b9 44 bc 9c 1d 1c 3d 5f ac 31 bc
       -0.015255641 -0.012007107 0.038114175 -0.010844319
000290 6d e3 09 bc 25 ea 1b bc 1b 68 82 bd 61 00 f3 bc
       -0.008416039 -0.009516274 -0.06367513 -0.029663267
0002a0 70 17 29 3d 7a 6f ee 3c bd 27 38 3d 5a 39 51 3c
       0.041282117 0.02910589 0.044959772 0.012770021
0002b0 5c db 9b bc 23 f6 76 3c 00 a7 86 3b 22 27 1b bc
       -0.019025497 0.015073332 0.0041092634 -0.009469779
0002c0 68 82 89 3c f2 9e 7f 3c f8 bd 8e 3c d0 80 3e bc
       0.016785815 0.01560186 0.017424569 -0.011627391
0002d0 01 a1 45 3c d6 b4 09 3d fd b9 2f 3d de 73 5e 3d
       0.012062312 0.033619724 0.04290198 0.05430972
0002e0 f3 c4 9b 3d 59 63 68 3c ec a5 5e bc fd ce b8 3c
       0.076059245 0.014183843 -0.013589364 0.022559637
0002f0 3c e7 04 ba 5e c2 4f 3b 3c e0 12 3a 90 9d 43 bd
       -0.0005069857 0.0031701545 0.00056028715 -0.047757685
000300 ac 8f 73 3c df b4 48 3d 66 ba d7 3a d8 bc 93 bc
       0.014865797 0.049000617 0.0016458749 -0.018034384
000310 2d 9f e9 bc bf 8b 14 3d 7a 4c 1e bc 25 ba 04 3d
       -0.028518284 0.036266085 -0.009661788 0.032404084
000320 0c c3 0e 3e ef fe a3 bb 72 a8 bb bd 6d 71 b8 bd
       0.13941592 -0.0050047557 -0.09162988 -0.09006009
000330 ec f4 aa bd 12 77 10 bd d5 81 e4 bd a2 17 04 3e
       -0.083474964 -0.035269804 -0.11157576 0.1289964
000340 19 c1 a0 3d 45 07 1f 3e 6b fb f1 bc b9 8c c5 3d
       0.078493305 0.15530117 -0.02953883 0.09645981
000350 4c 33 5b 3c 80 0f 85 3d 55 0c 55 3d 0b 55 cf 3d
       0.013378929 0.06497097 0.052013714 0.101236425
000360 3a 51 cc bd e0 be 05 3d c6 dd 19 3e ea 85 72 3d
       -0.0997643 0.032652736 0.15026006 0.05920974
000370 c2 d8 2e 3d b9 ab c8 bd 0f 7b b6 bd 96 87 01 3d
       0.042687185 -0.097983785 -0.0891019 0.031623445
000380 98 ed 7d bd b2 a5 0b 3e f9 e1 5c 3d fc 32 82 bd
       -0.061994165 0.13637426 0.05392644 -0.06357381
000390 b0 61 d5 bc 27 0d 05 3e 7b 48 99 bd ee c5 10 be
       -0.026047558 0.12993298 -0.07484528 -0.14138004
0003a0 b0 bd be bc 75 39 94 bd c8 77 16 be 00 fd 32 3d
       -0.02328381 -0.072375216 -0.1469413 0.04369831
0003b0 83 7e 6b 3b 86 70 19 be 38 b7 0d b9 ad 35 07 3e
       0.003593356 -0.1498433 -0.00013515062 0.1320407
0003c0 15 10 16 3e e3 d4 6f bd 4c 13 ea 3d 88 85 a4 bd
       0.14654572 -0.058552634 0.11429462 -0.080332816
0003d0 b3 ed 39 3e 6e e5 97 bc 4c 6c 47 3e d1 c0 31 be
       0.18157081 -0.018542018 0.19474906 -0.1735871
0003e0 5b ed 4c be a2 db 32 3e 7c c1 ae 3d c4 df 95 bd
       -0.20012419 0.17466596 0.08532998 -0.073180705
0003f0 19 0c 80 3c c6 7e 1c 3e 88 98 ee 3d f6 44 42 be
       0.015630769 0.15282735 0.11650187 -0.18971619

phi_z.0.bias f4 [40]
000000 a9 c2 16 bd 01 6c 91 3c f5 f7 04 3e bb 51 9c 3d
       -0.036806736 0.017751696 0.12985213 0.07632776
000010 0a 4c ac bd 56 43 5c 3e df ee 86 3e 84 ed 88 3e
       -0.08412941 0.21510062 0.2635412 0.2674371
000020 1f 4b 58 3e c7 02 5f 3e 42 44 90 bc 2f 6d 12 be
       0.21122406 0.21778403 -0.017610673 -0.14299463
000030 a8 c9 65 3e 02 ae f3 3c d9 3c dc 3d 8e 97 2d bc
       0.22440207 0.02974606 0.10753793 -0.0105952155
000040 46 31 1e bd 00 4e 1e bd 78 8f 11 3e ea dc 27 be
       -0.03862121 -0.038648605 0.14214885 -0.16392866
000050 1b 4a 2e 3d d2 84 85 3e 01 ca c9 bc 76 d9 41 3e
       0.04255114 0.26077896 -0.024632456 0.18930611
000060 64 32 16 3e 9b e0 10 3c 7c 64 1a 3e 21 3a 9e 3e
       0.1466766 0.008842613 0.15077394 0.30903724
000070 fd ca 3e 3e ba 6b 86 3b ad fd 48 3e 56 ba 91 3d
       0.18632121 0.0041021975 0.1962802 0.07115619
000080 e2 fb 80 3e 65 6f e5 3c 34 05 72 bc 7b 74 7d 3d
       0.2519217 0.028007219 -0.014771748 0.061878663
000090 e1 bb 51 3e 09 b2 c4 bc 24 f2 98 bd d1 70 fc 3d
       0.20481826 -0.024010675 -0.0746806 0.123262055

enc.0.weight f4 [40, 80]
000000 8d 43 7a ab c9 aa d6 00 e3 23 4c 04 71 2b 74 80
       -8.891159e-13 1.9714062e-38 2.3996563e-36 -1.0668501e-38
000010 1d 3c ad 80 58 f2 8c b5 04 79 62 b5 d8 57 05 81
       -1.5909105e-38 -1.0501344e-06 -8.436766e-07 -2.4491267e-38
000020 7b 3b 73 00 7c 07 b6 b7 c9 af 0f b7 b5 55 e0 b7
       1.058242e-38 -2.1699576e-05 -8.564392e-06 -2.6742791e-05
000030 6e 1d 36 b7 5d 8c 96 00 2a eb 1d 00 1f f8 05 01
       -1.08548975e-05 1.3825677e-38 2.74759e-39 2.460626e-38
000040 f6 db 9b ae a0 2a a9 b7 f6 d4 e9 b0 fe d9 7a 00
       -7.087657e-11 -2.0166219e-05 -1.7013508e-09 1.1282131e-38
000050 4e f2 08 01 ab 41 7c b7 a5 38 90 b7 9c 0a 1f 00
       2.51531e-38 -1.503566e-05 -1.7192515e-05 2.850706e-39
000060 3d db 0f 01 6d f6 96 84 66 21 e3 b7 08 37 b6 af
       2.6422248e-38 -3.5491137e-36 -2.7076061e-05 -3.314471e-10
000070 f0 3e 81 b8 39 1f 48 b8 1a 34 1b 01 b4 a9 5c 80
       -6.162922e-05 -4.7712794e-05 2.8506385e-38 -8.509744e-39
000080 83 ca 0e b4 a7 48 04 08 1e 0f 0e 81 d8 2b 0c 01
       -1.3298454e-07 3.9807708e-34 -2.6092127e-38 2.5745395e-38
000090 03 fa bc 00 23 b3 d7 a1 61 c4 dc 00 93 d9 c5 00
       1.735476e-38 -1.4616384e-18 2.0274257e-38 1.8169644e-38
0000a0 85 af d3 b3 83 6f 99 26 17 dc 0b bb cc ce 46 bb
       -9.85738e-08 1.0646733e-15 -0.00213409 -0.0030335663
0000b0 10 a5 d1 3a 7b 62 30 bb a4 ee db ba 76 7e 1e bb
       0.0015994627 -0.0026914168 -0.0016779494 -0.0024184263
0000c0 44 d6 45 bb 97 a1 90 b9 5d 0c 7a 37 14 3e 98 ba
       -0.0030187527 -0.00027586214 1.490404e-05 -0.001161518
0000d0 19 ec d1 39 a2 18 0e bb cd 84 40 bb e1 d3 6c 3b
       0.00040039493 -0.0021682163 -0.002937603 0.0036137032
0000e0 90 83 18 bb 68 a4 d9 ba 1e bc 4b 3b 63 3b 17 bb
       -0.0023271777 -0.0016604783 0.0031087468 -0.0023076169
0000f0 68 15 4b 3b 26 9a 16 3b 2b d9 23 bb ef 3b 6e bb
       0.00309881 0.0022980063 -0.0025001268 -0.0036351641
000100 a0 c0 65 bb 0a 44 20 3b f0 b9 17 bb 40 bd 0b 3b
       -0.003505744 0.0024454617 -0.00231516 0.0021322519
000110 c6 82 f8 8e 26 c6 15 bb c9 a0 18 bb b0 64 07 b9
       -6.126265e-30 -0.0022853701 -0.0023289195 -0.00012912112
000120 91 ee 34 3b b4 f0 2b bb 14 b7 45 bb bc 35 20 bb
       0.0027608017 -0.0026236 -0.0030168938 -0.002444609
000130 c4 1a 19 bb 90 68 4d 3b 88 94 0d bb 1b 1b 50 bb
       -0.00233619 0.0031342842 -0.0021603424 -0.0031754437
000140 9f 3c 86 3d 74 f8 75 00 60 43 73 3b f2 0d 28 2c
       0.06554531 1.0833881e-38 0.0037119016 2.3881977e-12
000150 ce b9 0c 00 2c 3c 49 3d db 9b 02 bd be d6 23 3c
       1.16868e-39 0.04912965 -0.031886917 0.009999929
000160 02 65 98 3b ec 8b 99 3d 84 bb af 3d 89 17 2f bc
       0.004650713 0.07497391 0.08580688 -0.010686764
000170 53 fa ba 3d a7 fd 6d 2a d8 9b 10 bb 4f d1 b7 3a
       0.09129777 2.1137832e-13 -0.0022065546 0.0014024171
000180 1a 9c 4a 3d bf 4c d8 3d bb c1 09 3d cb 1e 38 80
       0.049465276 0.10561513 0.03363202 -5.153834e-39
000190 25 f9 ed b5 97 b5 fe 3d 9a 30 d5 3c 49 0d 13 3c
       -1.7730387e-06 0.12436979 0.026024152 0.008975335
0001a0 9c 8c 33 00 37 dd 08 bb 69 d4 66 bd 79 8c 46 3d
       4.734051e-39 -0.0020883807 -0.056354914 0.04847381
0001b0 85 1b d6 3d b4 ec a8 3c 75 54 f5 36 13 99 9c 0b
       0.10454468 0.020620681 7.311401e-06 6.0319335e-32
0001c0 ff 9c 48 3d a4 e3 d2 bb ed 27 b7 bd 1a 61 00 31
       0.04897785 -0.0064358283 -0.08943162 1.8681647e-09
0001d0 6f 8f c8 35 4e 73 c8 3c 6c bf 35 3a a1 2a c1 80
       1.4942906e-06 0.024469044 0.0006933126 -1.7739543e-38
0001e0 27 fd 91 3c e9 4a 60 bd d6 e5 d8 3a ee b8 e7 bd
       0.017820908 -0.05475894 0.0016547989 -0.113145694
0001f0 95 cb a2 3c c6 fe 26 be ba c3 26 3c 45 4f 96 3c
       0.019872466 -0.16308126 0.010178501 0.018348346
000200 59 2f 7d bc 66 10 08 3d 03 5a 93 bd c2 9f da bc
       -0.015453183 0.033218764 -0.07194903 -0.026687507
000210 56 6c 44 3d 6d 13 f3 3a 81 49 bb bd 8d 64 cc 3c
       0.04795488 0.0018545218 -0.09144879 0.02495029
000220 6a e3 47 bd 71 f9 a6 3b 7e 2e 43 3d 56 b3 6b bd
       -0.048800863 0.0050956537 0.04765176 -0.057544075
000230 ea d8 e7 bc 58 ab 85 3d 3c 5f 60 bd e8 c6 9c bc
       -0.028301675 0.06526822 -0.054778323 -0.019137815
000240 69 54 84 bc 80 63 5e 3d 50 32 ed bd 24 85 09 3d
       -0.016153531 0.05429411 -0.11581862 0.03357424
000250 41 25 c3 3d 7a 1d 8d bd d9 f8 bc bd 3a 8c 90 3b
       0.0952859 -0.06890388 -0.092271514 0.0044112476
000260 b9 1b 0a 3a b9 47 47 bb df 88 f2 bd 20 46 2c 3d
       0.0005268413 -0.003040774 -0.11842512 0.042059064
000270 12 74 91 3a 2d bc 3f 3d 9c 9f f8 bd 5f 34 ac bd
       0.0011097214 0.046810318 -0.12139818 -0.084084265
000280 77 a1 c8 bc 49 cd 3a 80 db f3 4e b6 a6 b8 36 86
       -0.024491055 -5.400101e-39 -3.0838335e-06 -3.4366054e-35
000290 31 cd fa 00 18 79 60 bc b9 d6 40 3c 78 8f a6 80
       2.3032483e-38 -0.013700746 0.011769944 -1.5296159e-38
0002a0 0a de 5d 1f 25 bb 07 bd 23 b7 32 3c 74 54 15 bc
       4.6982237e-20 -0.03313746 0.010907921 -0.0091143735
0002b0 36 1c 9a bc 67 13 d1 85 da de 2d 01 e1 8c 66 04
       -0.01881228 -1.9661393e-35 3.193497e-38 2.7101058e-36
0002c0 45 0a 81 bc 07 a5 61 bd 2a a6 4f 3a 0f eb 7e 80
       -0.015751967 -0.055089023 0.0007921184 -1.1655596e-38
0002d0 7a 52 02 21 c0 29 af bd 4d 9b 8b bd 8f 87 07 b9
       4.415487e-19 -0.08552885 -0.06816731 -0.00012925103
0002e0 7c 12 df 80 6a 25 f0 b2 d1 cf 93 bc ba 36 fb bc
       -2.0485947e-38 -2.7956691e-08 -0.01804343 -0.030665744
0002f0 b5 fd a5 bc 33 84 86 3c a5 40 91 00 05 3a 37 00
       -0.020262579 0.01642046 1.3339337e-38 5.071766e-39
000300 4a 26 be bb 18 a7 5d ba c2 e4 15 00 df 85 fb 80
       -0.0058029043 -0.000845538 2.010608e-39 -2.3098733e-38
000310 00 66 73 2d c0 26 5e bc e0 40 b5 2f 8b b8 c8 80
       1.3835599e-11 -0.013559043 3.2969805e-10 -1.8433301e-38
000320 e8 79 18 bd 48 7f 21 3c 21 6f 7a bd c0 26 65 bd
       -0.037225634 0.009857006 -0.061141137 -0.055945158
000330 05 57 1f 3e 34 40 fd bc 07 7a a1 bd 88 57 05 bd
       0.15560539 -0.030914403 -0.07884603 -0.03255418
000340 9f b6 0b bd 8c dc 1a bd b1 e7 3a 3c 45 d2 df bd
       -0.034109708 -0.037807986 0.011407779 -0.109287776
000350 7a 5f 6e 3d 76 94 b5 bd 92 26 27 3d d0 2e 63 3d
       0.058196522 -0.08866207 0.040808268 0.055464566
000360 9e 82 95 bd 4e a3 05 bd 21 e3 02 3e e9 71 9d bc
       -0.07300304 -0.032626443 0.12781955 -0.019219356
000370 99 6a bc bb 3e d7 b7 3d 28 70 b7 bd 27 e4 dd bd
       -0.005750012 0.08976601 -0.08956939 -0.10834532
000380 c4 d1 24 bc c3 e9 8c 3d 16 2a 00 bd f5 25 b4 3c
       -0.010059778 0.06880524 -0.031290136 0.021990756
000390 3e bc 7c b9 01 93 11 bd 50 f7 36 3d 21 7a ee bd
       -0.00024102718 -0.035540584 0.04466945 -0.11644388
0003a0 bb 5d 87 3d f1 06 d5 bd 07 5b f2 bd a4 00 a2 bd
       0.066096745 -0.104017146 -0.11833768 -0.079102784
0003b0 a9 62 2c bd 9f 73 1b 3e 87 3c d7 bd 7f 40 8e 3b
       -0.042086277 0.15180825 -0.105095915 0.0043411846
0003c0 6b a0 9c ba 1a e1 fb 80 bc 86 65 37 61 2c f2 00
       -0.0011949664 -2.3131461e-38 1.3680834e-05 2.224011e-38
0003d0 fd 2d d4 80 44 f9 63 bc 69 1d 2b bd 50 52 73 00
       -1.9485623e-38 -0.01391441 -0.041776095 1.059061e-38
0003e0 e4 f9 20 80 c4 b3 53 3b 3b d4 72 bd d4 ed 77 bd
       -3.02838e-39 0.0032303194 -0.05928443 -0.060529545
0003f0 d6 b4 25 bc 1c 65 d1 80 98 bb 0b 00 8c b2 38 b1
       -0.010113915 -1.922989e-38 1.077486e-39 -2.6877016e-09

enc.0.bias f4 [40]
000000 2c 62 59 bb 7c 14 87 3d b1 d8 a8 bc 9e f6 ec bd
       -0.0033170087 0.06595704 -0.020611139 -0.11570476
000010 7d a3 40 3d 5e e5 92 bd bd e9 ba bc bb a1 b3 b6
       0.047030915 -0.071726546 -0.022816533 -5.3534436e-06
000020 34 35 4c 3c ff aa ee ba 39 56 48 bd ea b5 af bb
       0.0124638565 -0.001820892 -0.048910353 -0.005362262
000030 61 0c e0 bb 23 8c 31 3d bb 9e b1 ba 10 5e ad bd
       -0.006837413 0.043346535 -0.0013551334 -0.084652066
000040 c4 70 f1 bc df d7 99 3d 3a af ea b3 fa df a2 3b
       -0.029472716 0.07511877 -1.0928348e-07 0.0049705477
000050 ab 24 80 bc 5d 1a 5d 3c fe d3 5a bd b4 3f 2c b5
       -0.015642485 0.013495055 -0.053424828 -6.4167693e-07
000060 26 46 8e bd 4c 09 dd bd 30 b8 95 bd e8 1e 9c af
       -0.069469735 -0.10792789 -0.073105216 -2.8398195e-10
000070 ff b0 cf bc 26 40 14 bc 0b 6c 3a ae 87 cf 36 3e
       -0.025352953 -0.009048497 -4.2387465e-11 0.17852603
000080 a1 aa 4c 3c 6b 6d 4a 3d 58 41 70 3d 05 60 ab bb
       0.012491853 0.049420755 0.058656067 -0.0052299523
000090 3d d5 f1 bc ba 23 72 bc b5 0b 8d bc 37 b3 89 3c
       -0.029520625 -0.014779026 -0.017217496 0.01680909

enc.2.weight f4 [40, 40]
000000 24 2d f7 00 e8 6e 76 bb 3d 71 fd 00 49 52 1c 01
       2.2699561e-38 -0.0037602726 2.3275003e-38 2.8711712e-38
000010 75 cd 66 00 5e 66 21 00 e7 bf fb 80 98 cd 07 81
       9.440925e-39 3.067294e-39 -2.3119551e-38 -2.494309e-38
000020 51 d8 2b 80 9a 14 10 01 6f 43 09 81 eb 57 f2 80
       -4.026526e-39 2.6463404e-38 -2.5211307e-38 -2.2255729e-38
000030 8d 4d 5d 00 81 5e ff 00 97 8d 8d 00 04 37 b4 00
       8.568521e-39 2.3451953e-38 1.2999598e-38 1.6550125e-38
000040 b3 be 08 01 24 19 ca 80 2e 0d 9c 00 bd 3d e0 80
       2.5116075e-38 -1.8559789e-38 1.4331065e-38 -2.0593299e-38
000050 9a cd 00 01 38 f9 0f 80 53 d3 2e 80 d9 90 1b 81
       2.36574e-38 -1.466935e-39 -4.300242e-39 -2.8572927e-38
000060 0c 9b 20 01 39 02 00 01 53 d0 34 81 74 0b 2a 01
       2.94986e-38 2.3511482e-38 -3.3210244e-38 3.1232286e-38
000070 26 50 52 80 cd 84 82 80 20 07 1c 01 25 f0 9b 80
       -7.559263e-39 -1.1986254e-38 2.8657787e-38 -1.432065e-38
000080 2e 5e 0d 81 17 fe 10 80 2f bc 7e 00 2a 54 d8 80
       -2.596518e-38 -1.560518e-39 1.163878e-38 -1.986666e-38
000090 9e 2e 28 00 b3 3f 7d 80 c2 0a 1c 81 90 80 07 81
       3.690143e-39 -1.1502288e-38 -2.8660393e-38 -2.4887823e-38
0000a0 40 d3 2f 81 69 40 03 bc 0b 6e c4 bc 0d 7e 52 80
       -3.2293988e-38 -0.008010962 -0.023978254 -7.575729e-39
0000b0 37 0b bd bd 31 83 85 a6 2d 73 9f 15 5c 33 00 80
       -0.09230655 -9.264288e-16 6.4401304e-26 -1.8424e-41
0000c0 10 65 f9 bc d9 80 31 bd 5c 83 7d bd 2d 45 8c 00
       -0.030443698 -0.04333577 -0.061892852 1.2881785e-38
0000d0 be cc 32 bc 78 13 86 bd d3 d6 d3 81 e9 03 75 a9
       -0.010913072 -0.06546682 -7.7817416e-38 -5.440432e-14
0000e0 5f 47 4a b9 b4 5f 54 bc 5b 84 02 81 de 47 9e bc
       -0.00019290809 -0.0129622705 -2.397219e-38 -0.019321378
0000f0 63 46 b8 b5 0c d2 a2 bd 5d b4 71 00 48 32 17 81
       -1.3729554e-06 -0.079502195 1.0442113e-38 -2.7770395e-38
000100 96 2c e5 18 a2 46 95 bb 24 20 37 b7 bd f8 ea 80
       5.9240133e-24 -0.004555539 -1.0915133e-05 -2.1578737e-38
000110 19 8b 5a b4 04 ed 0b 01 6b 7e 83 00 c3 dd c4 bd
       -2.0353436e-07 2.5700318e-38 1.20758e-38 -0.0961261
000120 70 d9 e7 bc c1 54 f3 bb e9 35 11 b0 9c b2 2f 00
       -0.028301924 -0.007425875 -5.2827304e-10 4.380341e-39
000130 ba f2 87 3b 51 73 45 12 59 76 7b 84 e8 d6 49 bc
       0.0041488083 6.230438e-28 -2.955925e-36 -0.012319304
000140 b9 22 b6 00 87 9d 50 bc d5 14 91 ba d6 9c 4c bb
       1.6726516e-38 -0.01273287 -0.001106883 -0.0031221411
000150 6e 71 de bc be d4 b4 bd 1a ca c8 00 b3 c9 5b 00
       -0.027153697 -0.0882964 1.84396e-38 8.429386e-39
000160 c7 77 cb bc df c2 31 b7 59 d0 66 bd 0a 3e 32 80
       -0.024837388 -1.0595394e-05 -0.05635104 -4.61403e-39
000170 1d de 18 81 24 76 2e bd 1b 8a 7a 00 cb 4c bd bd
       -2.807735e-38 -0.042593136 1.1253473e-38 -0.09243163
000180 b6 52 d3 80 f9 ab 90 bd 35 d2 7b 00 2d d9 ee 80
       -1.9406961e-38 -0.07064051 1.1371174e-38 -2.1934756e-38
000190 82 6c a2 bb 85 eb 4e bd 35 70 a9 80 df 53 e1 00
       -0.004956783 -0.050517578 -1.5560451e-38 2.0693074e-38
0001a0 a3 79 f7 80 59 a5 59 bc 68 3c 0d 81 25 4c 07 01
       -2.2727003e-38 -0.013284051 -2.594095e-38 2.4850215e-38
0001b0 d8 02 18 00 83 45 e9 80 17 dc e2 00 e0 f6 a1 bd
       2.205072e-39 -2.1422607e-38 2.0833775e-38 -0.07908416
0001c0 99 2c ad bd ce a0 3b bd 35 23 87 00 76 aa 03 80
       -0.08455772 -0.045807652 1.2410422e-38 -3.36656e-40
0001d0 1c 10 1f 00 f8 cf d1 80 f7 ec 1b 01 44 1f 0b 00
       2.85268e-39 -1.9268224e-38 2.8639018e-38 1.021406e-39
0001e0 bd 91 1c 00 72 6b c4 bb da 29 aa b4 2e c5 10 01
       2.623675e-39 -0.005994254 -3.1695419e-07 2.6590092e-38
0001f0 2a 4f 07 b9 c2 ae 16 0c 94 fb 58 86 a2 4d 09 81
       -0.00012904094 1.1608169e-31 -4.0809915e-35 -2.5218625e-38
000200 a3 e8 4a ba a5 27 6e b3 0f 89 f1 b5 15 70 fa 80
       -0.0007740354 -5.544975e-08 -1.7995789e-06 -2.2999081e-38
000210 6a e0 4c ba c5 fd 6c b3 84 26 21 80 0b 76 26 0a
       -0.0007815423 -5.5178834e-08 -3.044388e-39 8.014811e-33
000220 33 c2 80 b5 26 0d dd b9 a3 52 68 80 4b 3a 1b bc
       -9.593263e-07 -0.000421622 -9.580536e-39 -0.009474347
000230 25 96 c5 a4 27 a5 11 bd 53 cc 0f 01 11 ca 3c 80
       -8.5689486e-17 -0.035557892 2.6411547e-38 -5.582618e-39
000240 86 5e 2f 80 be 0f b9 01 64 d6 56 34 8f d9 e7 00
       -4.350177e-39 6.7980856e-38 2.0008298e-07 2.1292045e-38
000250 39 25 ad b0 ab f2 4b 80 3d 3a 9b 00 99 4a 39 ba
       -1.2597986e-09 -6.974715e-39 1.4255394e-38 -0.0007068306
000260 d2 f5 36 81 39 74 d1 bb 6a d8 96 08 bf a8 07 81
       -3.3604488e-38 -0.0063920286 9.078675e-34 -2.4916653e-38
000270 ad 34 4c b9 ed 5a af 82 5e f4 14 80 2d a7 23 bb
       -0.0001947458 -2.5766128e-37 -1.924372e-39 -0.002497147
000280 96 f6 00 81 e3 8a ec a8 0c ef af 00 d1 8f e4 80
       -2.3686804e-38 -2.6261496e-14 1.6156966e-38 -2.0990085e-38
000290 a0 96 40 0f 07 b1 1d 81 64 8f 97 00 a1 d2 06 01
       9.49534e-30 -2.8963357e-38 1.3918599e-38 2.4763032e-38
0002a0 f7 64 f2 1f 9e 02 18 00 a3 43 eb 08 60 36 22 01
       1.0265802e-19 2.204991e-39 1.4159449e-33 2.9793713e-38
0002b0 9d f7 8c 0c 14 f8 97 80 52 98 ea 80 94 7b cb 00
       2.1719442e-31 -1.3956154e-38 -2.1544148e-38 1.8686937e-38
0002c0 b1 b1 84 80 6e b5 47 11 1b d3 11 01 7b a1 20 11
       -1.2186029e-38 1.5754239e-28 2.6783755e-38 1.2671534e-28
0002d0 d7 1f 18 03 75 8f 8a b0 f8 0f dc 80 bc 60 21 81
       4.4705336e-37 -1.0081594e-09 -2.0209538e-38 -2.9640433e-38
0002e0 36 0d 9a 00 16 06 c5 80 0e 55 27 00 9a 70 e5 00
       1.4147406e-38 -1.8093776e-38 3.612096e-39 2.1070722e-38
0002f0 80 75 bb 80 65 14 a5 00 f3 7e ed 00 83 14 62 80
       -1.7215389e-38 1.5160173e-38 2.1810553e-38 -9.007237e-39
000300 dd b3 a4 00 1e a5 d1 02 52 6a ab 80 28 2f a7 80
       1.5125544e-38 3.0804563e-37 -1.574201e-38 -1.5353444e-38
000310 8e f1 b8 0a 0c 39 9f 00 a0 b8 4d 00 98 08 ae ab
       1.7809418e-32 1.4622308e-38 7.137564e-39 -1.2365829e-12
000320 ea 40 94 80 f2 63 2f be 65 b6 cb bc 82 50 e1 bd
       -1.361494e-38 -0.1712797 -0.024867246 -0.11001684
000330 5c c5 3b be 74 71 ff bd 5a ab 2c 80 f8 62 59 a3
       -0.18337005 -0.12472811 -4.102231e-39 -1.1784551e-17
000340 6e 7d 2d 3d 6f 45 16 3c 4d d3 0f bd e9 2a 9a b6
       0.042355947 0.009171828 -0.03511362 -4.594553e-06
000350 fb 07 62 2e ba ad 2c be 88 1a 58 83 27 de 06 be
       5.139354e-11 -0.16863146 -6.350715e-37 -0.13170682
000360 06 58 9c 16 22 1b 0f bd 42 e0 cd 00 e4 41 bd b6
       2.525871e-25 -0.034937985 1.8906725e-38 -5.6403096e-06
000370 59 08 c5 bd c1 ed 8b 3c ae 8b ea b1 77 da 66 b5
       -0.09620733 0.017081143 -6.826176e-09 -8.5999585e-07
000380 57 14 7a 80 36 42 8b bd 26 cd 2e 30 55 80 8d af
       -1.1211227e-38 -0.06799738 6.3592365e-10 -2.5738936e-10
000390 79 13 95 1e 2e fe d6 00 37 b2 26 81 d0 f1 d1 bd
       1.5784042e-20 1.9743979e-38 -3.0617248e-38 -0.102512
0003a0 18 6a 46 be 23 60 97 bd 2f 6f 1b b8 c0 95 4e 80
       -0.19376409 -0.073913835 -3.7058428e-05 -7.216889e-39
0003b0 29 f9 04 be ea 39 9e a4 4e 07 d3 00 ce 8f d7 b7
       -0.12985672 -6.861969e-17 1.937991e-38 -2.5696962e-05
0003c0 04 83 1c 01 d7 65 63 b3 1c c8 1b 01 3f 2d 32 80
       2.8746674e-38 -5.294518e-08 2.8612575e-38 -4.608006e-39
0003d0 b0 b5 72 00 e3 d6 a7 80 e3 fa 1e 01 3d 12 90 26
       1.0534424e-38 -1.5413615e-38 2.920002e-38 9.996951e-16
0003e0 76 9d bb 2e b1 0e fb 00 a1 a7 43 80 ed 99 f7 b0
       8.531746e-11 2.305598e-38 -6.213112e-39 -1.8015364e-09
0003f0 ed ca 0f 01 a7 89 06 01 2c 4a 20 01 cf 7d 3d 80
       2.6410544e-38 2.4710674e-38 2.9440574e-38 -5.647097e-39

enc.2.bias f4 [40]
000000 82 12 47 b4 a1 a4 78 bc 44 3b 2c be 66 c9 ec bc
       -1.8540052e-07 -0.015175969 -0.16819483 -0.028904628
000010 0b 7c e8 bb 48 d4 a6 ba a0 24 a4 33 86 bb 96 bd
       -0.007094865 -0.001272806 7.643507e-08 -0.07359986
000020 39 a5 19 be 8a b4 09 be 4e cc b3 bd 39 d1 16 bc
       -0.15004434 -0.13447776 -0.087792024 -0.009205156
000030 33 40 45 bb e2 40 75 bc 6c 39 a2 bd 45 37 bd 20
       -0.003009808 -0.014969083 -0.079211086 3.205442e-19
000040 fa 0f c9 bd 32 74 11 bd 4f ff 7a bc d2 ab 4e bd
       -0.098175004 -0.035511203 -0.015319659 -0.05045683
000050 bc 0e 30 bd 3c aa 97 bc 64 07 ac ba fd bb 36 b1
       -0.0429828 -0.018513791 -0.0013124761 -2.6591345e-09
000060 83 eb 56 b8 50 00 d0 3d c8 a2 be bd 49 35 f2 bd
       -5.1240913e-05 0.101563096 -0.09308392 -0.118265696
000070 41 ce ec 3c 19 ea 2c be 42 78 54 3d f1 4f 2a be
       0.028906943 -0.16886176 0.0518725 -0.16632058
000080 3d ff d0 bc 0d 2c 81 bd 6c 7a 78 bc 13 34 89 bb
       -0.025512332 -0.0630723 -0.015165906 -0.004187116
000090 93 df 90 bd 26 b1 b9 bd 9d 1e d5 bd 39 4a c1 bc
       -0.070738934 -0.090669915 -0.1040623 -0.023594962

enc_mean.weight f4 [40, 40]
000000 cc 90 03 00 4d 5c 09 be 95 0c 33 0e 92 bf 0a bb
       3.2745e-40 -0.13414116 2.2069511e-30 -0.0021171314
000010 87 a8 91 80 cd 02 50 bd 6b e3 03 35 34 7a 25 3d
       -1.3376603e-38 -0.05078392 4.913224e-07 0.040399745
000020 7e cd b8 3a 58 8c 80 3d da 3f c2 3d 6a f4 ff 3b
       0.0014099327 0.062767684 0.09484835 0.007811119
000030 d4 9e 06 bd 36 fa ed 3c 44 5e dd bc 99 6d a3 1f
       -0.032866314 0.029049974 -0.027022488 6.92145e-20
000040 2a ac 92 3d 8e 19 2c 00 f7 d5 d4 bd d8 e9 69 bd
       0.07161744 4.049929e-39 -0.10392373 -0.057107776
000050 f7 55 09 b9 81 10 31 3d 7c a0 79 3c b2 9c 82 2a
       -0.00013097363 0.04322863 0.015236016 2.3201368e-13
000060 76 e6 b3 80 fb 21 73 3c 17 c2 fb 3c ad 36 82 bd
       -1.6521228e-38 0.014839645 0.030732198 -0.06358085
000070 ec e9 dd bc 8b 2a 6e bd af 1b 26 3d 91 fe d0 b7
       -0.027089082 -0.05814604 0.040553745 -2.4914074e-05
000080 75 75 74 bd 37 c8 0f be 7f c1 64 bd 9d 4c dd bd
       -0.05968233 -0.1404122 -0.055848595 -0.108056284
000090 fb 7e 28 bd b9 ec 32 ba e0 50 8e bc 1a 81 0f 00
       -0.041136723 -0.00068254356 -0.017372549 1.423845e-39
0000a0 d2 c7 63 80 a0 b4 ca 3d 92 13 4d 0a af 4b 2e b7
       -9.163396e-39 0.09897733 9.874072e-33 -1.038883e-05
0000b0 b0 2a da 00 8d f4 82 3d 21 b4 fd b3 45 0f 84 bb
       2.0035452e-38 0.063943006 -1.1813996e-07 -0.0040301406
0000c0 6a d0 96 39 da 2f 23 3d 77 7d 57 bd b5 4b 9f 3d
       0.0002876551 0.039840557 -0.052609887 0.07778112
0000d0 e4 86 54 bd b7 42 a4 3d 7d 47 d4 b7 e0 08 85 1f
       -0.051886454 0.08020537 -2.5305659e-05 5.6342373e-20
0000e0 e0 2b af bc cb ed 69 80 74 12 f3 3a 5e 6e 58 3d
       -0.021383226 -9.728031e-39 0.0018544928 0.05283963
0000f0 81 31 23 32 9a 29 a2 bd e3 4b d3 bb 9a de 45 2a
       9.499105e-09 -0.07918091 -0.0064482554 1.7574345e-13
000100 01 82 ff 80 fe 49 f5 3c cd 0a af 3c aa 8e 98 3c
       -2.3464688e-38 0.029942509 0.021367455 0.018622715
000110 da e2 8a 3c 7c 7f 1f 3e 68 57 42 3c 60 98 34 b9
       0.016953874 0.15575975 0.01186166 -0.00017222902
000120 0d 1d ba ba 1d c0 8a 3d 16 28 47 bd e0 5d 27 bb
       -0.0014199332 0.06774924 -0.048622213 -0.0025538132
000130 8a 63 e2 3b 37 c1 30 37 3c ef ce b9 5d 8c b5 80
       0.0069088386 1.0535404e-05 -0.00039469625 -1.6672578e-38
000140 f4 1e 74 80 ab 84 30 3c c5 3a 91 09 1a c4 39 3a
       -1.0664021e-38 0.010773818 3.4962747e-33 0.00070864114
000150 01 68 62 80 77 61 35 bd c5 b7 bb b4 3a 96 15 3a
       -9.037188e-39 -0.044282403 -3.4965174e-07 0.00057062844
000160 15 30 88 3c a3 7d 92 3d 33 7c 22 bd e0 89 d4 bd
       0.01662449 0.071528696 -0.039669227 -0.1037786
000170 e6 1c cf 3d 45 c1 ea 3c 4c fb 00 33 b9 3b d2 9e
       0.10112934 0.028656611 3.0030876e-08 -2.2259316e-20
000180 40 0e 6a bc 39 66 4d 00 2d 40 6a bd 35 77 a7 bc
       -0.014285624 7.108004e-39 -0.05719011 -0.020442585
000190 fc 06 bc b7 bb 38 23 3d ec 83 14 be f2 8d f3 27
       -2.2414599e-05 0.039849024 -0.14503449 6.7599946e-15
0001a0 a2 2c 38 00 45 5b 19 bd 13 89 39 3d bb cf 66 bd
       5.158799e-39 -0.037440557 0.04529674 -0.05635045
0001b0 a8 b0 eb 3c c0 78 ed 3c 12 c9 3f bd 10 e8 49 bd
       0.02877076 0.028988242 -0.046822615 -0.049293578
0001c0 fa 82 5b 3d 94 ec 04 3d 40 fa ec 3d d4 a3 65 bd
       0.053591706 0.03245218 0.11571169 -0.05606444
0001d0 cd 85 21 bb 4d 7c 95 b9 3b 4a 06 bc e1 d9 c3 00
       -0.0024646402 -0.00028512106 -0.008196409 1.7986082e-38
0001e0 5b e6 ca 00 49 d6 cf 3c bd bc d7 8e 0a 03 13 28
       1.8633406e-38 0.025370734 -5.318334e-30 8.160798e-15
0001f0 55 59 fd 00 91 73 3c 3d 2c 4f 1d b5 83 5b cb b8
       2.3266427e-38 0.04600865 -5.860227e-07 -9.69684e-05
000200 da 2f ca 3b c3 d0 41 3d 86 67 1c bb 37 91 0a bd
       0.006170255 0.04731823 -0.0023865416 -0.033829894
000210 3d 04 d9 3d aa e3 06 3d 8a e9 4e bd fe bb de 1f
       0.105965115 0.03293196 -0.05051569 9.4331664e-20
000220 e1 28 59 3b ef 58 b1 00 29 ad a9 3c 20 f6 62 bb
       0.0033135938 1.6286786e-38 0.020712452 -0.0034631565
000230 b9 3c e4 0b f3 9f 7c 3d c7 51 20 bc 83 da 72 2a
       8.791377e-32 0.061675977 -0.009785122 2.1569729e-13
000240 c9 b0 0a 00 27 e3 c4 3c 19 ea 8f 3d e5 70 38 3e
       9.81774e-40 0.024034096 0.070270725 0.18011816
000250 09 73 88 3c d9 3b 32 3e 2c f7 b0 b9 2a 66 a2 3b
       0.016656416 0.17405643 -0.00033753493 0.0049560266
000260 93 fd 53 3d 2a 26 0e 3b 5f f5 ae bd f2 ca 55 3c
       0.0517555 0.0021690228 -0.085428946 0.013048874
000270 ec 0f 2a 3a b5 49 ae 28 4f 64 7f bd 0d 15 2e 00
       0.0006487358 1.9349846e-14 -0.06235152 4.231984e-39
000280 fc 52 bf 80 83 48 e1 3d 0d da 33 00 7f 47 d9 38
       -1.7570349e-38 0.11000159 4.761832e-39 0.000103606835
000290 f7 64 d7 80 85 ff eb 3d d6 d0 0d b4 1c eb 3a bb
       -1.9780851e-38 0.11523346 -1.3207622e-07 -0.0028521484
0002a0 68 ec a1 bc b2 b6 99 3d 7b 6e cf bc 2f b5 67 3b
       -0.019766048 0.075055495 -0.025321236 0.0035355797
0002b0 8a 26 50 3e 4b fe da bc f8 d6 63 3c 77 82 c1 9e
       0.20327201 -0.026732584 0.013906233 -2.0488629e-20
0002c0 95 b4 86 bc 52 89 a3 80 94 74 e1 3c 56 0f 52 3d
       -0.01644353 -1.5018447e-38 0.02752141 0.051284157
0002d0 48 6b 7c 32 33 72 ba 3c 86 7f 60 3d d2 ce 71 aa
       1.46927235e-08 0.022759533 0.054809116 -2.1476855e-13
0002e0 b6 40 06 81 18 c4 b7 bd f7 c8 c8 bd 72 02 84 bd
       -2.465834e-38 -0.08972949 -0.09803956 -0.06445779
0002f0 5e 5d b5 3c e7 0b 8a 3d 62 30 83 bd 0e b0 27 bd
       0.022139248 0.067405514 -0.06405713 -0.040939383
000300 3c 0c 48 3d 40 cc b7 3d 37 59 eb 3c fa d2 db 3d
       0.048839793 0.089745045 0.028729064 0.107336
000310 45 25 df ba b6 3d 82 34 e5 d6 97 bc 39 a1 69 80
       -0.0017024657 2.4259288e-07 -0.018535087 -9.700563e-39
000320 49 c6 86 80 e3 f7 67 bd da ac c9 07 d8 d1 cc 3b
       -1.2377088e-38 -0.056632888 3.0344712e-34 0.0062506013
000330 7e dc 70 00 13 1d 10 3d 06 b7 69 b4 5c fb 40 3a
       1.0364673e-38 0.035183977 -2.17664e-07 0.0007361674
000340 b5 19 04 b9 1c 24 0c bd c5 8b b7 bd dd d3 9e bd
       -0.00012598078 -0.034214124 -0.08962206 -0.077552535
000350 2c c5 15 be 0b 9e f2 bb 5c 66 31 bd 01 4b 08 a0
       -0.14625996 -0.007404094 -0.043310508 -1.1544465e-19
000360 f0 a5 b8 bc ad 67 2a 83 25 0a a1 3c 2a 88 f6 bd
       -0.022540063 -5.0077524e-37 0.019658158 -0.1203769
000370 28 62 f5 ba cd 6b b2 bd d2 d8 3b 3d da 8f a2 2a
       -0.001872127 -0.087119676 0.045861073 2.8876798e-13
000380 6b 6b 32 80 b9 84 8a bd a3 77 ae 3c 2c 3f 46 bd
       -4.630309e-39 -0.06763596 0.021297282 -0.04840009
000390 32 a5 5b 3c c7 b0 ef 3c 8f 68 69 bd fb 24 c9 9e
       0.013406085 0.029259099 -0.05698448 -2.1296998e-20
0003a0 8f 74 17 be 6a 37 15 be 42 38 1c be 83 e2 29 be
       -0.14790557 -0.1457192 -0.15255836 -0.16590314
0003b0 60 15 3c bd 68 c7 de 3a bb e3 35 bd 51 b9 62 00
       -0.045918822 0.0016996684 -0.044406634 9.066358e-39
0003c0 b7 d8 f6 00 c4 b5 d1 3c 2a 7c 0f 8e 80 d4 8d 3a
       2.2669275e-38 0.025599368 -1.7685894e-30 0.0010820776
0003d0 8a 01 04 80 cf eb d6 bd 91 20 fd b3 6d 1a ac 3a
       -3.67894e-40 -0.10494196 -1.17871544e-07 0.0013130434
0003e0 00 24 d2 3c 0b d7 bb 3d 35 cc 09 bd 58 9d ca bd
       0.025651932 0.091718756 -0.033642013 -0.09893292
0003f0 69 25 2b 3d 97 b0 0a be 8b 63 93 3b 5d ac fc 20
       0.041783724 -0.13543926 0.0044979504 4.280452e-19
