runs/2022-04-25_04-39-41_model/model.ckpt (torch, 674132 bytes, 92 tensors)

phi_x.0.weight f4 [40, 122]
00000000: b0fc 4e33 c5fd 7337 6cea a0bc 31eb 1e3c
00000010: 27bf 67b4 57ab 36ba 0c7c 8abb edfa 4c3b
00000020: 5d32 2a35 93d3 2dbd 50da 37b9 42b2 2cbd
00000030: 8cd3 1dbc e1ee 6138 eef8 a0b4 e49b c3bb
00000040: 948a 053c 21c3 82bc 6e84 c33b 8df1 9abc
00000050: ff63 4eb9 89b5 2bbc cca7 a138 0683 e8bb
00000060: 1b78 91b3 e196 4bb8 2d91 e3ba 3c23 30bc
00000070: 7670 c5b8 0bb3 cabc 3082 e938 b10f d038
00000080: 668e 92bb c3cb 953b aaf4 b9b9 19cc a9bb
00000090: de94 853c ceae 1037 a02d 81bc 71ec 1bbc
000000a0: 3f12 2737 ecdf c6bb a3c3 42ba a1bf 9b32
000000b0: f3c7 993c 296c 11b4 1134 97b8 253f c2b8
000000c0: 2300 6eb5 10c1 743a 0c2a cfbb 1dd5 a0b8
000000d0: e608 0434 03b7 d03c 2230 32bb 054c 68bb
000000e0: 1b5c 9dbb 50c4 70b9 acc1 11bb 871b 9936
000000f0: 5680 e5ba 4cfe 0bb8 13c4 0a3d 0237 0739
00000100: 935a c3b9 69fa d7b9 b271 a1bb 0ead 9038
00000110: 8304 fc36 925e bd3c ff5d 6d3c cbc6 d7b9
00000120: 1831 c2bc 8f88 3039 c1b8 3cbc e59f 0d3b
00000130: 189a 383a c254 c33a 4dd4 aa3b 3abd bcbc
00000140: 8490 b3ba d778 86bb f1ba 0d3c ff6e f43a
00000150: da19 9f33 d7f9 3e39 1ae2 093c 97a9 1f3d
00000160: a366 b9b9 0e2e 7eb9 0c7b 923a 7dc0 60ba
00000170: 05b9 01bb 3850 8c34 8e26 2fba 99b2 d43c
00000180: 21a4 d0bb 2740 7dbc 03b4 0e3d 6ec0 b8bc
00000190: be64 b73a c2bc 8dbc 29c5 8f32 cf7d 11bc
000001a0: 3f68 13b5 eaef 0bbd 2f99 88b4 9cec 963c
000001b0: ac47 3837 44f4 f13b 80b3 0d36 0bce 08bd
000001c0: 09be bd33 ff5a 48ba cf3d 0c3a ac34 c9bc
000001d0: 08f7 a7ba 8bdf ae38 80e6 82b5 b9ce f6bc
000001e0: c08a c0b4 7f81 e336 f9ee 1a3e 98ca a4be
000001f0: f8ab 07be 9477 e4be 86d7 a1be c6f3 95be
00000200: 4183 b1bd 8a12 3bbe f1f4 89bd a5ad a63d
00000210: 8a8b 6fbd e5e1 8f3c de63 103e 1ee1 92bd
00000220: 1071 7bbc c5f7 833c dd6d 67be 68f5 60bd
00000230: 8462 513d 66c8 36bd 9c5c f73d 00c1 a7be
00000240: 330c b6be 3d9f 85be d710 bbbd 7d03 d5bd
00000250: fa12 f9bd 91da abbc 43bf 9b3d 1fc9 84be
00000260: b355 9cbe 3607 ab3d 9335 adbe 11ec cdbe
00000270: 12e7 49be 51f1 9abe 5783 e3bc af75 23bd
00000280: 31a2 1bbe abc6 983c cc3b 373d b311 05be
00000290: 6b53 e63c a402 9b3d dbce 23be 0c21 203d
000002a0: ce42 05be 60ea b7bd e0ac b5be 4eaf c2be
000002b0: df3d 24be f44d 183d 7ce3 0dbd 3094 bfbd
000002c0: 4162 dbbd f271 35be c0b1 03be cec5 c93d
000002d0: 5712 953d 652a 77be 0469 d5be 485e 84be
000002e0: 08f9 383e d401 afbd f4e4 ebbd 6593 22bc
000002f0: 89ee 10be 4492 e73d 2c57 9f3c 0690 c0bd
00000300: 3984 3fbd c376 9fbe e327 2abe cfeb 403e
00000310: fab7 933c d891 b3bc 9161 d63b 1926 90be
00000320: 090b b0bd 3508 0abe 5cfc 57be 806e b2bd
00000330: 21bf f9bd 3a56 3e3e 8f6a e63c 58ce a6be
00000340: d7ee 1c3b 49e1 82bd 8eab 4cbe 1cdb 42bd
00000350: 8c0c 56be 8221 40be 7548 8bbe e785 c93c
00000360: 2a9e 90bc 1d5a bdbc 059e 63bc 3d9e a8be
00000370: b54f 4bbd a0d8 62be 3212 9c3d ae30 aebe
00000380: 16b0 d4bd 3a69 b4be 404b 923d 1cc5 e2be
00000390: 8083 463d aa2d fdbd cf1d a1bd 6513 80bd
000003a0: 0a2d b4be d4b2 22bd 945c 07bd 9b22 49be
000003b0: d1d7 113e 9435 9fbc 01a5 e13d ea28 e93d
000003c0: f6b6 c4be e528 66be dc6b 9dbd 1417 aa3d
000003d0: 1d75 993d c37d 6b3e db1e 153e c58d 373e
000003e0: c17a 143e 2cdd 0b3e e8af 643e 32ee ad3d
000003f0: 533e f23d 69cf 1e3e 5398 a63d 1282 5c3e
4.819293e-08 1.4543014e-05 -0.019643031 0.009699629 -2.1583092e-07 -0.00069682806 -0.0042262133 0.0031277493
6.3403223e-07 -0.0424381 -0.00017533568 -0.042162187 -0.009632956 5.3866654e-05 -2.9983443e-07 -0.0059695113
0.008150715 -0.015962185 0.0059667146 -0.018914009 -0.00019682942 -0.010480293 7.708333e-05 -0.0070956973
-6.773936e-08 -4.853949e-05 -0.0017361991 -0.010750588 -9.4146395e-05 -0.024743577 0.00011134555 9.921136e-05
-0.0044725416 0.0045714094 -0.0003546824 -0.005181801 0.016306337 8.623769e-06 -0.015768826 -0.009516821
9.958224e-06 -0.006069174 -0.0007429665 1.8131518e-08 0.018772101 -1.3543526e-07 -7.209939e-05 -9.2624025e-05
-8.866211e-07 0.000933663 -0.006322151 -7.66909e-05 1.2296695e-07 0.025477892 -0.0027189334 -0.0035445702
-0.0048022396 -0.00022961316 -0.0022240682 4.56296e-06 -0.001750956 -3.3377015e-05 0.033878397 0.00012895095
-0.0003726078 -0.00041194566 -0.0049268836 6.898689e-05 7.5107105e-06 0.023116384 0.014487742 -0.00041156108
-0.02370505 0.0001683554 -0.011518658 0.0021610197 0.0007042005 0.0014902579 0.0052132965 -0.023039449
-0.0013699685 -0.0041037607 0.008650527 0.0018648802 7.408717e-08 0.00018212885 0.008415723 0.038980093
-0.0003536242 -0.00024240484 0.0011175587 -0.0008573605 -0.0019794118 2.61354e-07 -0.00066814653 0.025964068
-0.006367222 -0.01545719 0.03483964 -0.022552695 0.0013991816 -0.01730192 1.6737049e-08 -0.008880093
-5.4913465e-07 -0.034164347 -2.544343e-07 0.018423371 1.0983942e-05 0.007383855 2.111512e-06 -0.033399623
8.8355655e-08 -0.0007642954 0.00053497864 -0.024561249 -0.001281471 8.338605e-05 -9.752839e-07 -0.03012787
-3.586374e-07 6.7802025e-06 0.15130223 -0.32185817 -0.13249195 -0.4462248 -0.31609744 -0.29287547
-0.08667613 -0.18268791 -0.06736172 0.08138589 -0.058482684 0.01756377 0.14100596 -0.07171844
-0.01534678 0.016109357 -0.22600503 -0.054921538 0.051119342 -0.04462471 0.12078211 -0.32764435
-0.35556182 -0.26098052 -0.09134071 -0.10401056 -0.121618226 -0.020978244 0.0760484 -0.25934693
-0.30534133 0.08350985 -0.33829936 -0.40219167 -0.19717053 -0.30262235 -0.027772589 -0.039907154
-0.1519859 0.01864942 0.04473476 -0.12995033 0.028115949 0.07568863 -0.15996878 0.039094016
-0.13013765 -0.0898025 -0.35483456 -0.38024372 -0.16039227 0.037183717 -0.034640774 -0.093544364
-0.107121 -0.17719248 -0.12860775 0.098521814 0.07278889 -0.24137266 -0.41681683 -0.2585318
0.18063748 -0.085452706 -0.11518279 -0.009922837 -0.14153494 0.11307195 0.019450746 -0.0940247
-0.046756957 -0.31145296 -0.16616778 0.18839954 0.018032063 -0.02192013 0.0065423925 -0.28154066
-0.08595855 -0.13479693 -0.21092361 -0.087124825 -0.12194658 0.1858758 0.028126983 -0.32579303
0.002394607 -0.06390626 -0.19987318 -0.04757224 -0.20903224 -0.18762782 -0.27203718 0.024599982
-0.017653544 -0.023114258 -0.013892655 -0.32933226 -0.04963656 -0.22152948 0.07620658 -0.34021515
-0.10385148 -0.35236531 0.07143259 -0.44291008 0.048465252 -0.12362225 -0.07867014 -0.06253699
-0.35190612 -0.039721325 -0.033047274 -0.19642107 0.14242484 -0.019434728 0.110178 0.11384757
-0.38420838 -0.22476538 -0.07686588 0.08305183 0.07493041 0.22997193 0.14562552 0.17925175
0.14499952 0.13658589 0.22332728 0.08492698 0.11828294 0.15508808 0.08134522 0.21533993

phi_x.0.bias f4 [40]
00000000: 0d00 cabd 18bf b73e 48f5 b73d 5ce8 8b3e
00000010: 394c 703e 3e1a 273e 7b4d 883e fd7e 08be
00000020: a946 bb3d be57 febd b806 2fbe ea78 5f3e
00000030: 2707 013d 0546 383e dffd 3c3e fb0f 6b3e
00000040: e8ed 5c3e d20e f4bd 133c ac3d 88db 453e
00000050: 19d6 363e 00fc f73d eb7b 08be 2892 8f3d
00000060: 9e2c 053e fdac 383e 16a9 20be ceb0 8a3c
00000070: 5fed 093e c696 d6bd 0ef9 003e 908c 84bd
00000080: f978 c43d 5751 e6bb aeef 60bd 70bb 723e
00000090: b1e3 bb3d e562 623e ecc8 f7bd 9d36 9fbd
-0.09863291 0.3588798 0.089823306 0.27325714 0.23466577 0.16318604 0.26621613 -0.13329692
0.09144337 -0.12419079 -0.17092407 0.21823469 0.03150096 0.1799546 0.18456219 0.22955315
0.21575129 -0.11916889 0.08409896 0.19322026 0.1785511 0.12108612 -0.13328521 0.07010299
0.13005301 0.1803474 -0.15689501 0.01693001 0.13469456 -0.104779765 0.12595007 -0.06472123
0.09593386 -0.0070287394 -0.054916076 0.23704314 0.09174288 0.22108038 -0.1209887 -0.077740885

phi_x.2.weight f4 [40, 40]
00000000: b2fc 6432 eaf3 f634 acd5 9cb8 d649 9cba
00000010: 4af2 d5ba 4c26 f6b9 db8f ccba dd8f a5b3
00000020: 4f2d a6b9 9801 70b3 bfe9 deb3 66f7 8eba
00000030: 52cb 7637 7481 feb8 ef23 3534 1711 b3b4
00000040: d86d 75ba 161b 2cb4 b826 8ab9 6041 1135
00000050: bbc4 98b9 e431 a8b9 dab6 fab2 9739 deb9
00000060: d020 8eb9 bf0b 1fb9 866f a433 6915 d536
00000070: d9f1 bfba 7c46 8433 ea66 98b9 fd31 2933
00000080: 99e6 27ba b968 9bb3 3a84 9834 4381 84ba
00000090: 5624 9fb8 1f15 30b9 e624 9bb3 9747 3934
000000a0: be7c a43b e9f7 b13d ac8b 263d 67c7 8ebd
000000b0: dd5f 1a3e 6e96 a53d d255 163e d371 2e3c
000000c0: bb71 c9bc 7977 ddbc 0539 18b9 31a2 903b
000000d0: f351 31bd 1133 71bd 5896 f3bc e34f af3d
000000e0: a99a 033e c53d 2fbd f3d7 e6bd bd14 213e
000000f0: 12ed 933d b954 e1bd 3cf6 d33b ecb4 5ebd
00000100: 5507 a0bd b4d6 013e c7c5 3bbd 77a3 30bd
00000110: 6543 15bd 651a 8a3d 3adc b23c 27db d0ba
00000120: e5f3 4d3c e3d9 dc3d cd97 07bd 909f 32bd
00000130: b7c6 723d e8c9 8c3d 2f5c 8939 df2a dcbd
00000140: 991d 5a3d 9beb a03c 3808 e53c d93f 9d3e
00000150: 0e06 183e 81c0 a73e f27a 7d3e 51f1 df3d
00000160: 9264 043e 0291 1f3e f7c2 903c fed0 6c3e
00000170: 7947 8f3e c4e1 423e 1594 243e eceb 9d3e
00000180: c3ed 813e 166f 5e3e 5cfb 263e 36a6 743d
00000190: ff1c 8d3e 5e4b 9e3d 7531 333e ac52 a73e
000001a0: 5bae 9b3e 6500 a63e bf69 823d 6db7 b63d
000001b0: 491c 233e 433a 173d 5000 483d c0fa f13d
000001c0: 03f7 803e 5501 023e 57f7 5a3d 25c0 563e
000001d0: 5434 473d d4f9 6b3e 8db6 e03c bbaf 1b3f
000001e0: 3435 7eb3 fdb7 61ba 65e0 4336 db40 46bc
000001f0: 4341 debb 7e8d e0ba 2332 a8bb db39 8c33
00000200: 5eba 94b6 7edc a034 e45d 0831 bab8 e9bb
00000210: 70b6 2c35 1c3c acba 3dd1 37b8 3f29 c336
00000220: c7a4 08bc 1f8d e6b3 8b50 0d36 d2e7 25b6
00000230: 09e4 01bb 868d bdb8 5353 3e34 3164 fa33
00000240: 3a67 b1b9 7fa1 3abb 0268 2434 d75a 0035
00000250: fa89 dbba 394a 16b0 780f fcb9 2b90 68b4
00000260: 1bca 52b7 0b7a ef33 14bc d4b3 4136 bbbb
00000270: e55d d636 793c 98bb 9e64 8734 af4b d833
00000280: 541e 9abd 1024 db3d ce89 c93d 7513 e83d
00000290: ac5c 5bbd a9d3 203e d50f 863d 6950 5c3d
000002a0: 7a70 5a3e 4d87 bbbd faf9 ef3c 3ed1 803d
000002b0: 5b6f 4c3e ddb7 2d3e 156e 3c3e 652b c2bc
000002c0: 0a70 1b3e 54b8 9cbd 5799 a6bd 4d8a 3ebd
000002d0: f61a 9f3d 549b 5b3d 3335 a63c f6e0 ef3d
000002e0: 2e15 d23d d9a8 b53a 72d6 04be a430 313e
000002f0: ec50 a8bd 5057 9c3d 8b15 873c 2d71 39bd
00000300: 89e0 093e 4cbf 9bbd 974f 57bb 834a d33d
00000310: 21e2 c33d 2282 2c3d 7759 a9bc 52f1 903c
00000320: 04ba e835 1751 4f3a 4242 cabb 5c4a b3bc
00000330: 0aa3 cbbc f65b 73bc 4adf b7bc 452f 85b3
00000340: 3a57 07bc d166 8234 0942 3fb4 a6e9 a0bc
00000350: 1f3a 823b b6a7 7bbb be94 323b c844 baba
00000360: f8fa 94bc 7a77 3333 ea0f 21bc 70ba 15bb
00000370: 1507 22bc 2368 2cbc 7f48 10b3 ad95 21bc
00000380: 0c38 dfbb ab48 bcbb 289f 3c32 2e2c 8e3b
00000390: 1ba8 99bc 370d 3fb4 96a3 1ebc 24c6 cf38
000003a0: 1f11 55bc 9e7c d6b7 0cc6 aeb8 eeb7 81bc
000003b0: 22fd 66bb 7b45 eabb 5409 b333 fcd7 94ba
000003c0: c08d 5abd cbb6 063e 16f8 8fbd 67fa 183d
000003d0: 0079 063e 190b 193e aecf 853d 06ab e6bb
000003e0: 1511 433e 99a0 a6bd 8224 61bd 79e1 5a3d
000003f0: 0bb3 533e 8f1a 83bd 7bb8 aabc 906f 873d
1.3328803e-08 4.5998542e-07 -7.478459e-05 -0.001192386 -0.0016322818 -0.0004694931 -0.0015606837 -7.70958e-08
-0.00031695745 -5.5880804e-08 -1.0380199e-07 -0.0010907471 1.4710082e-05 -0.00012135776 1.6870011e-07 -3.3353783e-07
-0.00093623763 -1.6028602e-07 -0.0002635026 5.411184e-07 -0.00029138275 -0.00032080628 -2.9186982e-08 -0.00042386047
-0.00027108798 -0.00015167797 7.657131e-08 6.350387e-06 -0.001464422 6.15955e-08 -0.00029068376 3.9393843e-08
-0.0006404906 -7.236799e-08 2.8408414e-07 -0.0010109324 -7.588479e-05 -0.00016792536 -7.224462e-08 1.7255512e-07
0.0050197532 0.08689863 0.040660545 -0.06971627 0.15075631 0.08085333 0.14681175 0.010647255
-0.024590364 -0.027034508 -0.00014517091 0.004413866 -0.043291043 -0.05888659 -0.029734775 0.08560159
0.12851967 -0.042783517 -0.11271658 0.15730567 0.07222952 -0.11002488 0.0064685624 -0.05437176
-0.078138985 0.12679559 -0.045842912 -0.043124642 -0.036441226 0.067433156 0.021833528 -0.0015934453
0.012570356 0.10783746 -0.033103753 -0.043609202 0.05927154 0.06874448 0.00026199358 -0.107503645
0.053250883 0.019643595 0.02795802 0.30712774 0.1484606 0.32764056 0.24753931 0.10934699
0.1292899 0.1558266 0.017671091 0.23126599 0.27984217 0.19031435 0.16072114 0.30844057
0.2537671 0.21722063 0.16306823 0.059728824 0.27561185 0.07729219 0.17499335 0.3268026
0.3040646 0.32422176 0.06367826 0.089217044 0.15928759 0.036920797 0.048828423 0.11815405
0.25188455 0.1269582 0.053458538 0.20971735 0.04863389 0.2304452 0.027430797 0.6081502
-5.918737e-08 -0.0008610485 2.918788e-06 -0.012100424 -0.006782682 -0.0017132012 -0.00513293 6.529782e-08
-4.4324397e-06 2.9962752e-07 1.9843975e-09 -0.007132617 6.4340475e-07 -0.0013140473 -4.382547e-05 5.8162545e-06
-0.008340067 -1.07358794e-07 2.105752e-06 -2.4721853e-06 -0.0019819757 -9.038583e-05 1.7725442e-07 1.1659757e-07
-0.0003383698 -0.0028477607 1.5311528e-07 4.7815905e-07 -0.0016749494 -5.467516e-10 -0.0004807671 -2.1659132e-07
-1.2564032e-05 1.1151504e-07 -9.9062305e-08 -0.0057132547 6.3886278e-06 -0.004645881 2.5218918e-07 1.00720506e-07
-0.07525316 0.10700238 0.09840737 0.11331836 -0.053555176 0.15705742 0.065459885 0.053787623
0.21331969 -0.09156666 0.029294003 0.0628991 0.19964354 0.1696467 0.18401368 -0.023702333
0.15179458 -0.07652345 -0.08134716 -0.046518613 0.07768814 0.05361493 0.02028904 0.1171283
0.10257946 0.0013859525 -0.1297243 0.17303711 -0.082185596 0.07633841 0.016489765 -0.04527395
0.1346456 -0.07604846 -0.0032853836 0.10316946 0.09564615 0.04211629 -0.020672543 0.017693195
1.7339485e-06 0.00079085067 -0.0061724493 -0.021886043 -0.024858017 -0.014853468 -0.02244534 -6.2018934e-08
-0.0082605425 2.4289196e-07 -1.7812285e-07 -0.019642662 0.0039742137 -0.0038399524 0.0027249302 -0.0014211172
-0.018186077 4.178535e-08 -0.009830454 -0.002284672 -0.009889384 -0.010522875 -3.3593547e-08 -0.009862346
-0.006812101 -0.0057459674 1.0979228e-08 0.0043387627 -0.018756917 -1.7793069e-07 -0.009682557 9.907436e-05
-0.01300457 -2.5568817e-05 -8.333856e-05 -0.015834775 -0.0035246094 -0.007149396 8.337034e-08 -0.0011355872
-0.05335784 0.13155667 -0.070297405 0.037348177 0.13132095 0.1494564 0.065337524 -0.0070394306
0.19049485 -0.081361 -0.054966457 0.053437684 0.20673768 -0.0640155 -0.02083992 0.06613076

phi_x.2.bias f4 [40]
00000000: f2b9 4bbc e98a 543e a8fd a63d b0dc 48bd
00000010: 37f2 313e 450a 30bd 64a3 5c3e 15a9 1abe
00000020: 7596 963e ae7d 513e 5437 c3bd 4cb3 8a3e
00000030: 10d6 f73d 0d1c 273e 8d5c a13e 6cec 843f
00000040: b700 7cbd 64cd 32bd 3172 c8bd e018 63bd
00000050: 8332 bd3d 1fb7 9f3e b1d1 a13e 000c d7be
00000060: f514 853f 9fc8 5ebb ff32 09be ee55 acbd
00000070: a571 803e f273 623f a9d6 de3d 088e 04bc
00000080: b887 0cbd 2c67 003e d104 1cbd 3863 4bbd
00000090: 4c8e 22be 7d2c 10be e623 1d3e 3584 75bc
-0.01243447 0.20756115 0.0815385 -0.04903859 0.17377554 -0.042978544 0.21546704 -0.15103562
0.29411665 0.20458099 -0.095320374 0.27089918 0.12101376 0.16319294 0.31515923 1.038465
-0.06152412 -0.043652907 -0.09787405 -0.055443645 0.0923815 0.31194398 0.31605294 -0.42001343
1.039702 -0.0033994091 -0.1339836 -0.08414827 0.25086704 0.8845817 0.10880787 -0.0080905035
-0.03430912 0.12539357 -0.03809053 -0.04965517 -0.15874594 -0.14079471 0.15345725 -0.014985134

phi_z.0.weight f4 [40, 40]
00000000: 1583 70bd 1197 e8b9 3ce9 a2bc 0a86 87bd
00000010: 1711 a73d 677b 0c3d bd74 04bc 9932 46bd
00000020: 9019 02bd 9d3e 823d 19e5 e73c e9e3 aebd
00000030: a0ba 49bd b6ac 23bb 6ade 94bc 53c0 3a3d
00000040: 2dca dabd 83d8 4cbd 17ce 893d b544 b83c
00000050: dfb6 5cbd 3e37 023d 3ec6 03bd 318e 8abd
00000060: 6ef1 293b 8d9c 9bbd 45b8 9d3d c090 b43c
00000070: 8910 8d3d 0196 803c 9391 c7bd 97f4 b0bd
00000080: 1e10 a1bd 7f24 083d 1526 333c fa6f a0bd
00000090: 30b8 43bb 6335 10bd 016a 663d 8c0e 8dbd
000000a0: 8d68 54bc ef62 b0bd 6dae cb3c fa7f d1bd
000000b0: f0b1 363e 7bf2 e1bc a2ad 1c3e 296d 53be
000000c0: 30c9 f1bc 494c 0fbe f5a4 81bd b908 0c3e
000000d0: 15ba dd3d d572 34be da3d 3fbe 26f8 14be
000000e0: 7762 9a3d b6b8 ddbd 0202 0abe e1ea 673e
000000f0: 440c 32be e363 1abe d096 1f3e 4b15 7dbe
00000100: b0d6 83bc 2a4c 4f3d 3e68 6fbd 0021 e43d
00000110: 8703 4ebe c743 22bc 79fc babd 8370 bebd
00000120: 0708 dbbd 6154 c9bd 2150 403c 4c3f 5d3e
00000130: ce78 363e ab06 89be 09d7 6ebd 3ffb 343d
00000140: a3d0 503e c890 81be fe8a 80be 637e 85bd
00000150: 03e7 503d d47b 9abd 2009 e83d 975e 38be
00000160: d6b2 a0bd 9cf7 683e a5e5 31be 771c 00bd
00000170: 8bff b83d 4ab9 2d3e 957b 333e 7dba 8fbe
00000180: e414 473e 2e84 673e 8b7b 243d 231b 723e
00000190: df7c 63be b000 733e ad94 d83d 41ea 223e
000001a0: 83f9 11be bbe0 853e 5ba9 893e 5e64 373e
000001b0: 5eec de3d 38a2 42be d4a7 14be c3ed 5cbe
000001c0: 70d4 1c3e 4fb6 8bbe 49e4 373e cb35 fa3b
000001d0: ee68 4abd af93 8e3d 54d6 3cbe bf40 8f3e
000001e0: 4be2 b6bc ab0c e5bd 1483 debd b253 5a3e
000001f0: e7c3 dc3d 96e3 af3d f0d8 953d 7639 013e
00000200: d6de 4c3e 2261 153e e000 7e3e b2cc ab3d
00000210: 5106 4fbd f702 603d c377 ac3c 5982 13be
00000220: fd51 f93d c8d4 173e 1742 c13d a928 133e
00000230: 0bfd bebd c3d3 31bd 6947 5d3d 5c36 e83d
00000240: 01b8 8b3d 1686 c23d 3c83 ddbd 3597 50bd
00000250: 7f44 013e 77f9 7fbd 2e84 583d 643c 613d
00000260: 0bd5 3abb 22dc b23d 283f b6bc 4926 42be
00000270: 9fc6 f33d 31a5 9abc 569f 8dbd 98bf c93d
00000280: f266 613e 49c6 ed3d 915e 3ebe 7212 3ebe
00000290: 67c1 193d 00b9 4ebe e520 1f3e d1fb d9bd
000002a0: 8b4d 983d 5d59 523e 2063 aa3d 3101 82bc
000002b0: cdd8 8bbd 0948 57be d7d8 6f3e cb2b 243d
000002c0: 5a1e 113e 6d90 703e c1bb a5bd 8ac9 443e
000002d0: a34d 7fbe 2a0b 41be 65c6 373d fa5a 89bc
000002e0: e9c0 62be 3e7d f23d 5027 2bbe d190 313e
000002f0: 961d 39be f7aa 3fbe 68f3 703b c7b6 fb3d
00000300: f110 f2bc ffea 943d 13fc 4f3e e2d4 c03d
00000310: e8b8 8ebd 9165 1f3e 38ba 023e 39d1 d73d
00000320: 3602 c039 73e0 983d c232 95bd d422 653d
00000330: daae b3bd 0dc4 393c 52cf 07be 8979 2fbd
00000340: 1ca2 d63d 0149 35bd d087 833e d0e8 fcbd
00000350: e17a d33c b2e5 a0bd 80ff 953d 03e1 cd3c
00000360: 714f 503c 0919 27bd 5288 ff3d a418 49bd
00000370: a208 653d e9fa bbba 9f84 b63c 8f6b a53d
00000380: ef76 99bd b1b8 bdbd b4ef 2bbd 6241 9d3d
00000390: b5b3 c23d 980c ad3d 92c1 01bb dc47 52bd
000003a0: 776b 9cbd b09e b83c edab bdbc c6e9 6ebc
000003b0: e686 7cbd 116f 0abe 67e5 cd3d 80bd ee3d
000003c0: d922 3b3d ec51 2fbe 3e78 dd3c f9dc d53d
000003d0: 205b 1cbe 2251 063e 6766 17bc 1c2c 38bb
000003e0: 8788 7f3d 2446 37bc f8bb de3c 70ed 9d3d
000003f0: bd76 93bb 52e3 933c 2a8e 463a 16e3 afbd
-0.05871876 -0.00044363042 -0.019886605 -0.06617363 0.081575565 0.034297373 -0.008084473 -0.048388097
-0.03176266 0.06359599 0.028307484 -0.08539564 -0.049250245 -0.002497477 -0.018172462 0.04559357
-0.10683093 -0.05001117 0.06728762 0.0224937 -0.053885337 0.031790964 -0.03217148 -0.06765402
0.0025931257 -0.07598219 0.07701162 0.022041678 0.068879195 0.015696527 -0.09744563 -0.08640402
-0.07864402 0.03323793 0.010934372 -0.07833858 -0.0029864423 -0.035207164 0.056253437 -0.0688754
-0.01296438 -0.0861262 0.024863446 -0.10229488 0.17841315 -0.027581444 0.1530061 -0.2064711
-0.029514879 -0.13993944 -0.06330291 0.13675202 0.10826508 -0.1762193 -0.18675938 -0.14547786
0.07538312 -0.108262464 -0.13477328 0.22648193 -0.17387491 -0.15077166 0.15584874 -0.24715154
-0.016093582 0.050609745 -0.058449022 0.11139107 -0.20118533 -0.009903855 -0.091301866 -0.09298804
-0.106948905 -0.09830547 0.011737854 0.21606177 0.17819521 -0.267629 -0.058310542 0.04418492
0.20392089 -0.25305772 -0.25106043 -0.06518247 0.05100156 -0.075431496 0.113298655 -0.18004833
-0.0784661 0.22750705 -0.17372759 -0.031277146 0.09033116 0.16965213 0.17527612 -0.28071967
0.19441563 0.22609016 0.040156882 0.23643164 -0.22215603 0.23730731 0.10575233 0.15909673
-0.14255337 0.26148018 0.2688702 0.17909381 0.10884927 -0.19007194 -0.14517146 -0.21575074
0.15315413 -0.27287528 0.17958178 0.007635807 -0.049416475 0.06961762 -0.18441135 0.27979085
-0.022324702 -0.11184057 -0.10864845 0.2132099 0.10779553 0.085883304 0.07316768 0.12619576
0.2000688 0.14587834 0.24805021 0.08388652 -0.050543133 0.054690327 0.0210532 -0.14405192
0.12173841 0.14827263 0.09436434 0.1437098 -0.09325608 -0.043414842 0.05402318 0.11338493
0.06822205 0.09498231 -0.108160466 -0.050925452 0.12623785 -0.062493768 0.05286043 0.054989234
-0.002850833 0.08733393 -0.022246912 -0.18959917 0.11903118 -0.018877598 -0.069151565 0.09850997
0.22011927 0.116100855 -0.18590762 -0.18561724 0.03753796 -0.2018776 0.15539892 -0.10643733
0.07436665 0.20541902 0.08319688 -0.015869709 -0.06828461 -0.21023573 0.23422562 0.040080827
0.14171734 0.23492594 -0.08092452 0.19217506 -0.2493196 -0.18851915 0.04486694 -0.016767014
-0.22143902 0.11840294 -0.16714215 0.173404 -0.18077692 -0.18717562 0.0036766175 0.122907214
-0.029549094 0.072713844 0.20311002 0.09415604 -0.06968862 0.15566088 0.1276635 0.10537953
0.0003662274 0.07464685 -0.07285072 0.055941418 -0.08773585 0.011338246 -0.1326268 -0.042840514
0.10480139 -0.044259075 0.25689554 -0.12349093 0.02581543 -0.07856311 0.073241234 0.025131708
0.012714253 -0.04079536 0.12477173 -0.049095765 0.055916436 -0.0014341745 0.022280036 0.08077156
-0.07493388 -0.09263743 -0.041976646 0.076784864 0.09506933 0.08449668 -0.0019799215 -0.05133806
-0.07637685 0.022536606 -0.02315327 -0.014582103 -0.061652087 -0.13518931 0.10053521 0.11657238
0.04568753 -0.17121094 0.027034875 0.10442538 -0.15269136 0.13116887 -0.009240723 -0.0028102463
0.062386062 -0.011186156 0.02718924 0.07711303 -0.0045002387 0.01805273 0.00075742847 -0.08588235

phi_z.0.bias f4 [40]
00000000: 68f8 1cbe 52a8 a1bd be1a a83c 2acc 8b3d
00000010: c2cc 883e 2e1d 9fbd 71f5 e5bd 5cac eb3b
00000020: 84c4 5f3e 297f 743d 63ae 3f3d 1267 213e
00000030: 3b17 153e 2c2d 0a3b 9fcd 86bc 779b 49be
00000040: 30da 12be b3ec cdbc a7ad 773e 4f3f a83c
00000050: 3f06 8c3b f046 88bc 3d98 023e 65ad a1bc
00000060: 1fc8 e8bd 762a 583d dcb9 fb3d 6ef3 8a3e
00000070: 9471 0e3e 4925 5abe 528f bc3d ebf1 203e
00000080: a388 de3d 51c8 d43c 56b2 263c aa7e 9d3c
00000090: f400 f2bd 3e5f 043e 4751 f83c 99f4 263e
-0.15329134 -0.07893433 0.020520564 0.068260506 0.26718718 -0.077692375 -0.11228455 0.0071921777
0.21852309 0.059691582 0.046797168 0.15761974 0.14559643 0.0021084053 -0.01645547 -0.19688211
-0.14341044 -0.025137281 0.24187337 0.020538 0.0042732055 -0.016635388 0.12753387 -0.019736001
-0.11366295 0.05277487 0.12291309 0.27138847 0.13910514 -0.21303286 0.09207024 0.15717284
0.10865905 0.025974425 0.010174355 0.019225437 -0.11816588 0.12926957 0.030312194 0.16304244

enc.0.weight f4 [40, 80]
00000000: b725 72b3 dd28 c2bd b00b a0bd 57f7 0cb2
00000010: d329 8cbd dfa3 d4b3 3ffd 843b 5a51 bdb4
00000020: f6a3 b5bc a626 93bd 8060 7d33 e900 13be
00000030: bf83 efbd f62f e83c da87 34bd a791 4ab4
00000040: 62ba 233c 09d3 4332 220a 8b3d 3544 a83d
00000050: 8e16 eabd a92d b3bd 4b58 b9bd d04f 3731
00000060: 4e3b c9b2 aa16 6eb3 00c6 4634 8fea 453a
00000070: db84 273c c51f ceb3 86c2 63ba 3d31 b732
00000080: fb73 cd3b 2bc1 cebc 4b29 823c a94e 8db2
00000090: 2bbd 60b4 ffed 8fb7 f9c5 fcbd 0777 d232
000000a0: 1b85 dd3d 5c8e c9bc e900 893d bca0 bbbc
000000b0: 619b c6bd 7847 1cbe 06ce 073c 1368 193e
000000c0: 1079 09bc 28a7 2d3e 4e24 003e 2d5d 2ebe
000000d0: 1975 0cbd 9a76 40bd d8b9 d0bd 04e6 b53d
000000e0: 2134 6d3d 812f a4bd 2a50 eebc f037 20be
000000f0: e342 683d 9d77 053e 01dd cc3b 4e72 9e3b
00000100: daed 683a 43d9 01be b877 2e3d af27 bebd
00000110: 0b67 2d3c aa18 00be cfde 103e 8ee9 103e
00000120: 4db5 3f3c 0700 7139 7075 8f3d a7c8 31be
00000130: b0c6 353e b9fe 7cbd 5395 463e 0082 a03d
00000140: 833f ccbb ab1a 973c 2bf3 013e b8c5 f7bc
00000150: 7a05 143c eaf8 fabb 560b 083c 852f a739
00000160: f532 0e3e 83b6 393e 0cdb 9db2 c547 253e
00000170: a63f 0b3e e934 e43d d03f 55bc fd7a bd3d
00000180: a345 043c cbe5 a5b9 24fa 883c 1342 3a3d
00000190: cf41 0a3e 0e0a 423e 379f 0e3e 4dbc 13bd
000001a0: 152d a13d 1ae9 4134 2dbf 7432 4489 7fb7
000001b0: 70e7 5e3d 3c36 993d 20bc 543d 81a2 aeb3
000001c0: 3ce9 cd3b fcd2 1f3c 0fb4 ad3d f2ef 28b2
000001d0: b2c3 f6b3 4b47 b935 828e 1a3b 42a4 40bb
000001e0: 6c8d e2bd f2cf d9bd b59b 973d 2d54 f1bd
000001f0: 4926 003d 27c2 48bd 6e55 2f3d 7d41 0c3d
00000200: f8e3 29be a997 42bd 4a19 aabd 808c 6abe
00000210: 295a 693d c35d a2bd 44c2 ab3d a4ef 4e3e
00000220: 500f 5fbd 9f3a c33a eb15 09bd f45e 0bbe
00000230: 22d5 213e 777b cd3d 66d3 253d b7a3 63bd
00000240: cb4a 1e3d d3bf 7d3c b375 8a3a 2f84 d63d
00000250: 768b 85bd 1fae 4ebd 92fc 353d 4eba c0bc
00000260: ce32 d2bd 5876 033d e88b 50bd 66e6 99bc
00000270: f59b bc3d 3103 a13d 65a0 823d 2d8f c53b
00000280: 9e36 8132 cadd 09be 794e 21bc 0adb dd31
00000290: 51c5 0dbe 6599 e933 b4fb 72bd 9675 e8b5
000002a0: cdfd 94bd f646 1cbe 4de0 57b5 e5ce e8bd
000002b0: 82d1 b3bd 2a97 7ebc 7690 84bd 090f ed31
000002c0: 6586 09bd ffc9 31b4 962c 0bbe a578 1ebd
000002d0: 92c6 07bd b317 ddbd 6db0 e8bd f6b6 0bb4
000002e0: 9a34 1fb0 f7cd 8333 42bb a033 f7bc 8b3b
000002f0: 5f3a 59be 4cb0 4132 baa5 91b2 1baa 8633
00000300: bd39 88bd 234c 81bc 79fa fdbc 6ef4 0c34
00000310: b6b1 c3b2 8beb d9bc e2cd 06bc 1638 c832
00000320: 6819 e93c fce9 d5bc 3d9a a13d 66cc dbbc
00000330: edaf edbd 605b a2bd 47ca 00be 9ed2 1e3e
00000340: 7988 dabd c70c 6e3d aba4 393e fdec 023e
00000350: e615 073b 3985 d13c ffda 0d3c c933 a1bd
00000360: 76ec 3d3e 5c45 493d 59dc 28bd bd5b f7bd
00000370: de29 d63d 05b0 0bbd 2b3a d33c 1652 133c
00000380: e49c 96bc 11a1 dfbc 0d96 efbd 4b87 0abd
00000390: f820 7bbd 9ebd b8bd 52db 343e f2a4 133d
000003a0: 27a3 34bc 3b9c d2bd 8d70 0dbd 5b29 db3d
000003b0: 196c 9a3d 66db 04bc 33ae 66bd aae2 223e
000003c0: 93f5 7d30 60f2 0f3d ae2a 20be 7383 25b1
000003d0: 8254 0abc 2068 85b2 40f4 803c e054 52bd
000003e0: f726 42bd d5a3 2bbe 49ab b531 494d de3b
000003f0: 3d1b eabd 4996 bcbd 8057 2abd 74c2 c631
-5.6379317e-08 -0.0948045 -0.07814729 -8.205311e-09 -0.06843915 -9.901827e-08 0.0040585096 -3.5263184e-07
-0.02217291 -0.07185106 5.899392e-08 -0.14355816 -0.116950504 0.028343182 -0.04407487 -1.8865704e-07
0.009993168 1.1398478e-08 0.06789042 0.082161345 -0.11430083 -0.08748943 -0.09050044 2.6675373e-09
-2.3426448e-08 -5.5434306e-08 1.8512219e-07 0.00075499056 0.010224546 -9.5984014e-08 -0.0008688349 2.1326395e-08
0.0062699295 -0.025238594 0.01588883 -1.645033e-08 -2.0930445e-07 -1.7157754e-05 -0.12342448 2.4501345e-08
0.108164035 -0.024604015 0.06689627 -0.022903793 -0.09697605 -0.15261638 0.008288866 0.14981107
-0.00839068 0.16958296 0.12513849 -0.17027731 -0.03429136 -0.046988107 -0.10191697 0.088817626
0.057911042 -0.08016873 -0.02909096 -0.15646338 0.056704413 0.1303391 0.0062519317 0.0048354035
0.00088855403 -0.12680535 0.04259464 -0.09284913 0.010583649 -0.12509409 0.14147495 0.14151594
0.01170094 0.00022983561 0.07004821 -0.17361699 0.17751575 -0.06176636 0.193929 0.078372955
-0.006233157 0.018445333 0.12690417 -0.030245647 0.009034509 -0.0076590674 0.008303484 0.00031888127
0.13886626 0.18136029 -1.8376817e-08 0.16140659 0.13598499 0.11142904 -0.013015702 0.09251974
0.008073243 -0.00031642462 0.016720839 0.04547317 0.13501666 0.18949148 0.13927923 -0.03606825
0.07869927 1.8059328e-07 1.4246138e-08 -1.5231144e-05 0.054419935 0.074810475 0.051937222 -8.132066e-08
0.006283907 0.009754892 0.08481609 -9.833444e-09 -1.14908644e-07 1.3804323e-06 0.0023583476 -0.002939478
-0.1106213 -0.106353655 0.07402746 -0.117836334 0.03128651 -0.049013283 0.04280608 0.034242142
-0.1659087 -0.047507916 -0.08305605 -0.22905159 0.05697075 -0.0792804 0.083866626 0.20208603
-0.054457963 0.001489479 -0.03346817 -0.1361044 0.1580396 0.10033315 0.04048481 -0.055576053
0.038645547 0.015487629 0.0010563642 0.10474431 -0.06520741 -0.050459024 0.044430323 -0.023526337
-0.102635965 0.032095283 -0.050914675 -0.01878662 0.09209434 0.07861937 0.06378249 0.006029031
1.5042414e-08 -0.13463512 -0.0098453695 6.4568484e-09 -0.13844801 1.087781e-07 -0.059322074 -1.7319569e-06
-0.07274971 -0.15261444 -8.042014e-07 -0.11367587 -0.08780195 -0.01553897 -0.06472866 6.899317e-09
-0.033575434 -1.6557895e-07 -0.13591227 -0.038689274 -0.033148356 -0.10795536 -0.113617755 -1.3011945e-07
-5.7918614e-10 6.137628e-08 7.4846426e-08 0.0042644697 -0.21213673 1.1274164e-08 -1.6955585e-08 6.270803e-08
-0.06651638 -0.015783375 -0.031003224 1.3127439e-07 -2.2781801e-08 -0.026601573 -0.008227797 2.330857e-08
0.028454497 -0.026112549 0.07890747 -0.026830863 -0.11605821 -0.07927585 -0.12577163 0.15510032
-0.10670561 0.058117654 0.18129222 0.12785716 0.0020612418 0.02557622 0.00865817 -0.07871205
0.18547234 0.049138412 -0.041225765 -0.120780446 0.10457204 -0.034103412 0.025784573 0.008991739
-0.018385358 -0.027298482 -0.11698542 -0.03382043 -0.06131074 -0.090205416 0.17661789 0.036045976
-0.011025227 -0.10283705 -0.034531165 0.10701247 0.07540149 -0.008108949 -0.056318473 0.15906778
9.2389846e-10 0.035143256 -0.15641281 -2.408538e-09 -0.008443 -1.5530588e-08 0.015741467 -0.051350474
-0.04740044 -0.16761716 5.287266e-09 0.0067841155 -0.114309765 -0.09208352 -0.041587353 5.784665e-09

enc.0.bias f4 [40]
00000000: 064d b1bd df00 abbc 5ac7 30bd 509f 09bd
00000010: 80ab 96bd d8cd 883d 0405 46bd 4cc4 a9bc
00000020: 2aaa 363b 0a4d 07bd ec10 19be 9735 1ebe
00000030: 6691 063c 0781 2b3d 2c9f 113d 33e0 1bbe
00000040: 7b75 14bc 75a5 85bd d732 10be 70fa d1bc
00000050: ca2f 0f3f 1e43 12bd 8e2d 44be 9a03 133c
00000060: 3ce5 f0bc c128 14be d683 0fbe d652 bbbd
00000070: 184e 25be c3b9 4bbd 09a2 9cbd 910e 9bbd
00000080: 2598 b8bd b735 3d3c 312b 10bc 61bc 04be
00000090: 56d0 38bd 5aad ccbb 37be 0fbe d1f9 97bd
-0.08657269 -0.020874439 -0.043158866 -0.033599198 -0.0735693 0.066798866 -0.048344627 -0.020723484
0.0027872422 -0.033032455 -0.14947861 -0.1545013 0.008213377 0.041871097 0.03555219 -0.15222244
-0.009061213 -0.06525699 -0.14081894 -0.025632113 0.55932295 -0.03570854 -0.19158003 0.008973027
-0.029406182 -0.14468671 -0.14015135 -0.09146659 -0.16143072 -0.049737703 -0.07648093 -0.07571138
-0.09013394 0.011548451 -0.00879936 -0.12962486 -0.04512056 -0.006246251 -0.14037405 -0.074206956

enc.2.weight f4 [40, 40]
00000000: ab3a 66bd 5096 60bc f574 bd3c d6f2 4fbe
00000010: f208 2bb9 d772 26be ddb2 f7af 64a3 e33c
00000020: 700e 3134 6c27 9fbb 9915 9f3b 6c5b 7abd
00000030: c165 a4b6 7be1 4cbd e9f7 efbc 56f3 fbb9
00000040: 7a1b d1bd c9d5 92b6 1c50 f7bc ed38 93bd
00000050: c91f 873c 7cf7 1535 c852 c2bc 4d7c 34be
00000060: b1fb 1cbd 1659 853c c7f9 d934 43da 65bd
00000070: c1bb bfbc d5bd 71bb d5d1 93bc aba7 103b
00000080: 68d0 4634 25a8 0bbd 58fc 25be 22a3 05b6
00000090: c2e4 e133 4a58 43be 7012 6334 0947 073d
000000a0: f0cd 7dbc 30ed 16b9 0f9d 3abd b7c5 ac3c
000000b0: a897 5fb3 7154 29bc 06c1 92b4 f976 ccbd
000000c0: c072 86b3 2340 fb3b 8d45 743b c78a 893b
000000d0: 74aa 3734 6a42 8cb6 1e8a bebc 2dbb 8c34
000000e0: d921 0bba f70a 7f34 0261 8c34 c7c8 4f34
000000f0: a255 3635 5413 05b4 1f44 0535 4ee3 80bd
00000100: aad9 21bc 6fee 0b38 c499 ae34 9a18 233b
00000110: f250 3bb9 166e 62b6 aad1 0f36 7141 5b34
00000120: 3818 25b4 367a 2bba 41d7 8a3c e0c8 4435
00000130: 822d dab6 6819 31bc ce74 8033 0059 a23a
00000140: dac9 c53c a6d9 9bbd 7aac 01be 5e30 28be
00000150: 8271 fdba 203f f0bd 602d 1bb4 230b 49be
00000160: b5a2 493d 32d7 513d 346d 20bd 83a2 cdbd
00000170: 6b60 903d 6370 0f3e c7a9 e6bd 2c77 723c
00000180: 9c89 06be b2df 97bc 1f37 613a d498 c63b
00000190: d8b0 96bd e92c 12bd 1363 77bd e23b 22be
000001a0: e19b 9e3c 005d 1dba 4724 a3bc f75f ffbd
000001b0: 541e 243e bc69 e3bd 8297 273d 8022 f43c
000001c0: d38a 29b4 39b9 eb3d 2db4 f33d bd8b 2a3b
000001d0: 2ff3 00b2 a422 6a3d e4d4 2938 1984 8c3d
000001e0: 2594 c5bc 0c3a a8bd 0883 4b3e a731 b8bb
000001f0: 8a20 453b 6ef2 47be 5a4c 8e34 8553 ef3d
00000200: 1f88 30bd d110 343d fd6f ddbc 6ea1 29be
00000210: 303d 2d3c a6e3 20be d00a 8a3c c106 b53d
00000220: f3ec 1a3c 15fe 1f3c 75b2 11bd 7258 f2bc
00000230: c499 30bc 6a2c 39be aeb8 bc3c 8577 ac3d
00000240: ca58 233e 0827 463d e055 c4bd b904 d83d
00000250: 492b 453d aeeb d7bc 43bd ccbc 904f bcba
00000260: 421c 7639 d707 44be b37f 16be e4fc ca39
00000270: 8a6b 9fb3 1b56 0ebe a35f cdb6 9548 1cbe
00000280: 4c81 9733 4584 1dbe de3b 9834 9279 4034
00000290: deee 09b4 2bbe 0eb4 c827 0837 d3ab ce33
000002a0: 12eb f432 ee83 a6b3 e8d0 8834 b31d 8533
000002b0: 7026 0d34 f5c2 46b3 0939 7234 653d 9f33
000002c0: ae6d b533 7ed1 ae32 6b63 3eb4 25b3 9133
000002d0: cc92 0d3f cc8a 18b4 cd13 9eb4 0c42 c832
000002e0: 7b42 6133 f169 1db4 2d44 a333 43ce a933
000002f0: df59 9c32 f23b 9330 ed79 0032 f88e d3b3
00000300: 00a0 2bb3 9dcc 8034 c721 4eb3 e407 6bb4
00000310: 60c8 053e 5ba9 8832 7255 9fb4 ab8d 61b4
00000320: fe3c d8bc 5615 0bbe c954 0e3e fddb 55be
00000330: 9295 b63b ba8e c4bd c59b debc ae4c 193e
00000340: dbee 00be afec cfbb f2c0 1ebd a7f0 97bd
00000350: 494c 5fbd f86b b6bc 07ce 49be d8c9 263d
00000360: 8da2 4bbe 0bfb 003b bfcd 133c 1ac1 363d
00000370: 5e0f 933e f800 59bd 3795 a4ba f2d2 313e
00000380: e590 2fbd 30a3 a13d da08 1bbd 91f1 bdbb
00000390: f513 75be 62d8 673d 2085 2fbd 8075 31bd
000003a0: 6e85 87b4 f44e 113d f251 0abd b7a7 3d39
000003b0: a0ff 16be 42fb 063d d400 09b7 b551 8cbd
000003c0: 5efc 5db3 448e 84bd 6618 0d34 d1d6 5d3b
000003d0: 3ccd d831 faaa a4bd b1a6 80b3 e057 6db4
000003e0: aad5 8b33 7149 13b4 bebb 9bbd ebb6 9bbd
000003f0: ff70 79bd a151 a2b1 8075 91bd a859 b931
-0.056208294 -0.013707712 0.023127059 -0.20307478 -0.00016311163 -0.16254745 -4.5056128e-10 0.027787872
1.6489662e-07 -0.0048569944 0.0048548696 -0.061122343 -4.8994266e-06 -0.050019722 -0.029293017 -0.0004805575
-0.10210319 -4.376027e-06 -0.030189566 -0.07188592 0.016494649 5.586696e-07 -0.023721114 -0.17625542
-0.03832597 0.016277831 4.0601137e-07 -0.056116354 -0.023404958 -0.003688683 -0.018044392 0.0022072594
1.8516005e-07 -0.034095902 -0.16209543 -1.99135e-06 1.051899e-07 -0.19076648 2.114773e-07 0.03302673
-0.015490994 -0.00014393474 -0.04555994 0.021090372 -5.2059164e-08 -0.010335074 -2.7335062e-07 -0.0998363
-6.260734e-08 0.007667558 0.00372729 0.0041974518 1.7105214e-07 -4.1800567e-06 -0.023259219 2.621322e-07
-0.0005307473 2.3752715e-07 2.6147615e-07 1.935142e-07 6.7924896e-07 -1.2393622e-07 4.964549e-07 -0.06293355
-0.009878555 3.336224e-05 3.2521905e-07 0.002488649 -0.00017863864 -3.3740703e-06 2.14307e-06 2.0419772e-07
-1.5375633e-07 -0.0006541343 0.016948344 7.3308e-07 -6.502204e-06 -0.01080928 5.981711e-08 0.0012386143
0.024144102 -0.076098725 -0.12663451 -0.164247 -0.0019336196 -0.1173079 -1.4452007e-07 -0.19633155
0.049227435 0.051230617 -0.039166644 -0.10040762 0.0704964 0.14007716 -0.11262851 0.014798921
-0.13138431 -0.018539283 0.00085912825 0.006060699 -0.07357949 -0.03568736 -0.06039722 -0.15843156
0.019361438 -0.0006002933 -0.01991476 -0.12469476 0.16027194 -0.111041516 0.040915973 0.029801607
-1.5789855e-07 0.11509938 0.118996 0.0026023232 -7.505874e-09 0.057161942 4.049101e-05 0.06861133
-0.024118492 -0.082141966 0.19874203 -0.0056211534 0.003007921 -0.19526073 2.6505114e-07 0.11685852
-0.043098565 0.04396135 -0.02703094 -0.16565487 0.01057367 -0.15711841 0.016850859 0.08839179
0.009455907 0.009765168 -0.03557058 -0.02958319 -0.010778848 -0.18083349 0.02303728 0.08421234
0.15951839 0.048377067 -0.09586692 0.10547776 0.048136983 -0.026357498 -0.02499259 -0.0014366973
0.00023470915 -0.19143616 -0.14697151 0.0003871686 -7.423576e-08 -0.13900034 -6.1206097e-06 -0.15262063
7.0550044e-08 -0.15382488 2.8355765e-07 1.792562e-07 -1.2846019e-07 -1.3293963e-07 8.115494e-06 9.623877e-08
2.8512236e-08 -7.753975e-08 2.5483973e-07 6.1986974e-08 1.3145632e-07 -4.627778e-08 2.2558756e-07 7.415182e-08
8.44842e-08 2.0351532e-08 -1.7731297e-07 6.784675e-08 0.5530212 -1.4206597e-07 -2.94442e-07 2.3313099e-08
5.244736e-08 -1.4660306e-07 7.60268e-08 7.9071945e-08 1.8201659e-08 1.0712695e-09 7.478303e-09 -9.851459e-08
-3.995956e-08 2.3990734e-07 -4.7993833e-08 -2.1888951e-07 0.13064718 1.5909498e-08 -2.9678228e-07 -2.1006296e-07
-0.02639627 -0.13582358 0.1389953 -0.208847 0.0055720294 -0.095975354 -0.027173886 0.14970657
-0.12591116 -0.0063453536 -0.038758226 -0.07418948 -0.05451611 -0.02226828 -0.197075 0.040719837
-0.19886227 0.0019680883 0.009021222 0.04461775 0.28722662 -0.05297944 -0.0012556677 0.17365626
-0.04286279 0.07892454 -0.03785024 -0.005796619 -0.23933394 0.056602843 -0.042851567 -0.043324947
-2.5242792e-07 0.035475686 -0.033769555 0.00018086923 -0.1474595 0.032954462 -8.166029e-06 -0.06851522
-5.16851e-08 -0.064724475 1.3140524e-07 0.0033849964 6.30976e-09 -0.08040424 -5.9907855e-08 -2.2104314e-07
6.511557e-08 -1.371716e-07 -0.07604168 -0.07603248 -0.060898777 -4.7241007e-09 -0.071024895 5.3944014e-09

enc.2.bias f4 [40]
00000000: 3249 d0bd 8259 e1bd 02a0 0cbc 4d19 7abd
00000010: 7a24 da3c b363 843d b65e f2bd bb4a 323d
00000020: 8bff 23bd 2082 e33d 1e6c 40bb 7cf0 06be
00000030: 2489 6f3d 2689 cabd ba41 4ebd ed51 fbbd
00000040: f7e4 c93d 923e 38be fd43 2cbc 1478 11be
00000050: 2db0 00be 6859 bcbd 2526 e2bd 4f2b 713d
00000060: cb2d 2bbe 3b8e 5e3c b061 15bd 5043 af3d
00000070: 8d25 00be 8204 1cbb 4e93 3a3d 95db 24be
00000080: 6511 83bd 9f2e e83d ab44 0ebe e29a 74bd
00000090: b43d df3c e3ed b3bd 022d 49bd ecfd da3d
-0.10170211 -0.110034004 -0.008583071 -0.061059285 0.026628722 0.064643286 -0.11834471 0.0435283
-0.040038627 0.11108804 -0.0029361318 -0.13177675 0.058480397 -0.0988944 -0.05035565 -0.122714855
0.09858125 -0.17992619 -0.010514257 -0.14205962 -0.12567206 -0.091967404 -0.11042432 0.058879193
-0.16716687 0.013583715 -0.036470115 0.08557761 -0.12514324 -0.0023806398 0.045550637 -0.16099389
-0.06399802 0.11337017 -0.13893382 -0.05971802 0.027251102 -0.08785608 -0.04911519 0.10692963

enc_mean.weight f4 [40, 40]
00000000: 0a43 9d34 5345 7eb4 d370 b43d 031f d8bd
00000010: 33e9 0f3e 369f 473e 426f 8bbd 25a6 613e
00000020: 165c 26bd 227a 2b3e 9b8d 63b3 9400 3733
00000030: f1f1 e33d f0f9 0dbc 6d87 f93d 98b1 d63d
00000040: 8fc9 1e3d 98a0 efbc fac6 95bc 0ebb 933c
00000050: 1896 82bc 4dd6 61bb 800a 7cbc 6322 cb3d
00000060: ae95 8ebd 9bf5 d83d 5337 7e3c 146c b03c
00000070: 7148 8f3d 0f6c bbb4 0b8c f3bb c5d3 903d
00000080: f8d4 8a36 e662 133e a773 a5b4 d945 10be
00000090: 6589 eb3d b386 85bb 3d89 25be a3c3 cf3d
000000a0: 7ff2 943b 5aa6 aa38 8dc2 b53d 8fe5 08be
000000b0: 02ab 39be 8f73 84be 91e6 1a3e 301e 3cbe
000000c0: 64c4 3c3e 8138 92be dcca 7433 94f5 8a34
000000d0: 0fa4 453d 4174 ddbc 324a 7dbd cb27 ed3c
000000e0: b807 bd3d 7f15 23bd 43a2 993d 9dda 2fbd
000000f0: 37b1 013d c589 ecbd 80a2 1dbd 7462 bebd
00000100: 75cd 273d 6c13 aa3b b9c5 fabc ef99 a5bd
00000110: b7bc 1ebe 7637 bbb3 7e13 b63d 07e0 b53c
00000120: b22e 3bb5 d7ab 34be f3ac 37bb 4c40 e83d
00000130: 4438 16bd 7d81 1dbe ecf7 bd3d 0cf6 c53d
00000140: 8202 763c 7cc8 bcbc 2cf2 d63d 9439 d63d
00000150: ee37 69be b61c 99bd 1a2e 983d 0727 33be
00000160: b64a 7abd fd4f a2bd 97ae aa34 6f31 15b5
00000170: 48d4 363c df0f 283d e987 f8bd afff 1a3e
00000180: 2ef8 c8bd 124e 29bd b7ae ee3d ba6e 003c
00000190: 763f fa3d a200 85be 3cef f6bc d50c 91bd
000001a0: 9f69 dc3c b297 e9bb d525 7dbd 071f 39bc
000001b0: a777 f8bd 2fcc d9b5 d45a e3bc 526b 8a3b
000001c0: 01fb 93b5 79f9 18be 63d5 ccbc 56b5 b9bc
000001d0: 4fbd 783c 8a26 603d afbb 97bd 7bf4 43be
000001e0: ea3d 99bb 5edc 6c3b 93ab 09bd f9c0 debd
000001f0: 28b9 1ebd 60b6 833d 608c 883d 037b 703d
00000200: 231e 373e 3391 19bd a70b 3d32 0237 be33
00000210: a064 553e c68d 7f3c ce1a 62ba 38ab d13d
00000220: d55b e33c 8662 f33c 993c 353d aa89 7ebc
00000230: 5f0b 4a3d 5bc8 ed3c 8b6e 973b 2ab2 8c3d
00000240: 9305 633a 6777 643d df98 1cbe 594b 04bd
00000250: 4625 61bd 4fc8 d5b5 01eb 67bb e130 023d
00000260: e09b b0b4 961b 563b bb55 1b3b b562 b4bd
00000270: f854 653e 43fb 3f3e 1b9d f63d 9d92 443e
00000280: 1949 3a3d ab04 ebbb 03c3 35bd f9f9 68bd
00000290: 5f66 113e cb48 603d 2781 b5bc 9d89 06bd
000002a0: bd7f 0a3a 7147 3cbd a0f2 3434 0741 0ab4
000002b0: 4dd9 713e b917 143e 05fb 29bd e9bc ae3d
000002c0: 1bce c6bd c5c8 e23c d763 2bbd c8e1 ccbd
000002d0: 7e31 80bd e567 893d 4251 6f3b 3aef 203e
000002e0: 624d d7bc 5346 8b3c afb3 653d c97c 59bd
000002f0: 4f34 093d 3289 19b3 9a6e a5bd 7daf df3c
00000300: 4c7d f4bb 5ee2 513d 7ba4 423d 1403 f0bd
00000310: fbb1 2f3e 782d 4f3d 6521 86bd f6a9 97bd
00000320: 8b3a 823b a73a 63b8 8cf7 9b3d 013b fa3c
00000330: 5745 a4be a2e0 cebd 0df6 e438 3e4e 45bc
00000340: 00e7 1d3d 854d e9bd 6935 6e33 5dfe 6fb4
00000350: d2e7 bfbd ce3a dabd 43f2 153c 3235 18bd
00000360: 7a36 1cbd c626 4abc 00f4 113e 02a1 f93c
00000370: de6e 643d 69f4 e6bd 35f1 a4bd 2aa2 ffbd
00000380: b2de 293d 5f1e 2e3d 6d4a 16be 4a85 da3d
00000390: b128 3bbe ea11 22b6 3edc 0bbe 6281 44bd
000003a0: e521 623c 664b 2bbe 7391 13bb ff3a 17be
000003b0: 28fe 40be ea89 0e3a e35b 573c a9c0 173e
000003c0: befe 86ba cb62 88b7 c102 acba ad53 c63d
000003d0: e689 f13d dba3 96bd 03b4 5c3d 3820 a73d
000003e0: 395e c93d be00 3cbc ba6e 5bb4 0438 f634
000003f0: e30a 2e3e deeb 053d 8674 633c 65a6 40bd
2.9292306e-07 -2.3680813e-07 0.08810582 -0.1055279 0.14053802 0.19494328 -0.0680833 0.22036035
-0.040615164 0.16745809 -5.2981346e-08 4.2608534e-08 0.11130131 -0.008665547 0.121840335 0.10483092
0.03876644 -0.029251382 -0.018283356 0.01803353 -0.01594071 -0.0034460009 -0.015383363 0.09918668
-0.06962143 0.105937205 0.01551612 0.02153591 0.06996239 -3.4910087e-07 -0.007432466 0.07071642
4.1375133e-06 0.14393196 -3.0817793e-07 -0.14089145 0.11500815 -0.0040748953 -0.16165633 0.101447366
0.0045455093 8.137217e-05 0.08874998 -0.1336882 -0.1813164 -0.25869414 0.15127017 -0.1837089
0.18434292 -0.28558734 5.6995177e-08 2.5883185e-07 0.04825216 -0.027032973 -0.061838336 0.028949639
0.09229988 -0.039815422 0.07501652 -0.042933095 0.031663146 -0.11549715 -0.03848505 -0.09296122
0.040967423 0.0051903035 -0.03061186 -0.08086001 -0.15501676 -8.7179544e-08 0.088904366 0.022201551
-6.973088e-07 -0.17643677 -0.002802667 0.11340389 -0.036674753 -0.15381427 0.09275803 0.0966607
0.015015246 -0.023044817 0.10495409 0.10460201 -0.22775242 -0.07476179 0.07430668 -0.17495357
-0.061106406 -0.07925413 3.1791998e-07 -5.557876e-07 0.01115901 0.04103076 -0.12135298 0.15136598
-0.098129615 -0.04133422 0.11654418 0.007838899 0.122191355 -0.25977045 -0.030143373 -0.07082526
0.026905833 -0.007128679 -0.061803658 -0.011298901 -0.12132197 -1.6227185e-06 -0.027753271 0.0042242194
-1.1025405e-06 -0.14938916 -0.025004094 -0.022669476 0.015181853 0.054724254 -0.07408845 -0.1913623
-0.00467657 0.0036142091 -0.03361089 -0.1087665 -0.038750798 0.0643127 0.066673994 0.058711063
0.1788259 -0.03749199 1.1003897e-08 8.85757e-08 0.20839167 0.015597766 -0.000862521 0.102377355
0.02775375 0.029710066 0.044247244 -0.015535751 0.04932725 0.029026201 0.004621332 0.068699196
0.00086601934 0.055777933 -0.1529269 -0.03229842 -0.054967187 -1.5928034e-06 -0.0035387876 0.031784896
-3.289597e-07 0.003267025 0.0023702222 -0.08807889 0.22395694 0.18748192 0.12041684 0.19196554
0.045479868 -0.0071721873 -0.04437543 -0.056879018 0.14199208 0.05475692 -0.022156311 -0.032846082
0.0005283317 -0.04596657 1.6852073e-07 -1.2875908e-07 0.2361805 0.14462174 -0.041499157 0.085321255
-0.0970728 0.027683625 -0.04184326 -0.10004002 -0.0625944 0.067092694 0.003651694 0.15716258
-0.026282016 0.017001307 0.056079563 -0.05309752 0.03349715 -3.5747867e-08 -0.08077736 0.027305359
-0.0074612256 0.05124127 0.047520142 -0.11719337 0.17157738 0.05058047 -0.06549338 -0.07405464
0.003974264 -5.417564e-05 0.07615575 0.030545713 -0.32084152 -0.10101439 0.00010917718 -0.01204258
0.038550377 -0.11391739 5.546227e-08 -2.2351146e-07 -0.09370388 -0.10655747 0.009151998 -0.037160106
-0.03813789 -0.012338346 0.14253235 0.030472282 0.055769794 -0.11277086 -0.08053819 -0.12482102
0.041472144 0.042509433 -0.14676829 0.10669954 -0.18277241 -2.4150308e-06 -0.13658234 -0.04797495
0.013802026 -0.16727981 -0.0022517114 -0.14768599 -0.18846953 0.0005437421 0.013144466 0.14819588
-0.0010299308 -1.6258467e-05 -0.0013123379 0.09683929 0.1179388 -0.07355472 0.05388261 0.08160442
0.09832425 -0.011474786 -2.0436246e-07 4.5861827e-07 0.1699634 0.032695644 0.013882762 -0.047033686

enc_mean.bias f4 [40]
00000000: 7d66 8fbd 3010 c0bc 6fba 423d 7a95 1cbb
00000010: 06bb 923d 108e d8bc 5e97 d7bb 28e3 c0bd
00000020: 2d2a ebbd efc8 f2bc 9328 afbd 5a42 8a3d
00000030: 46a9 3e3d 7200 dcbc e417 a73d 5882 173e
00000040: a085 023e 4d8d 86bd 23fb f6bc 2150 ea3b
00000050: ee3a 2fbd 7fd4 6e3d 7ee9 203d df09 d63d
00000060: 1284 913b 1e8f 603d 5d70 8e3d 3199 7ebd
00000070: f55a db3c 85b9 99bc b068 f5bc 4307 1d3d
00000080: bf4b 813d 91b4 87bd 5c0e 8abd 4c40 8f3d
00000090: 3584 1abd eb29 253d 05fe 4f3d 1c9c 91bc
-0.0700197 -0.023445219 0.04754108 -0.0023892806 0.07164578 -0.026434928 -0.0065793237 -0.094183266
-0.11482654 -0.029636828 -0.08552661 0.06750937 0.04654815 -0.026855681 0.08158854 0.14795816
0.12746286 -0.0656992 -0.030149048 0.0071506654 -0.04278081 0.05830812 0.039285176 0.104511015
0.004440793 0.054823987 0.06955025 -0.062157813 0.02677677 -0.01876522 -0.029957145 0.038337003
0.063132755 -0.06626237 -0.0674102 0.069946855 -0.03772374 0.04032318 0.05077936 -0.017774634
